DRL Nanodegree/Personal Exercises Solutios/4. Multi-Agent  Reinforcement Learning/p3_collab-compet/Actor1_solved.pth (torch_old, 51767 bytes, 14 tensors)

fc1.weight f4 [128, 24]
00000000: 8553 32bf 5a92 6a3e 202c c83d 6a07 88be
00000010: 981d 013e a336 873e f629 3d3d 32a8 aabe
00000020: ac67 0abf 2741 51bd 8346 5d3d 883b 29bd
00000030: cf2b 443e dc64 4b3e 7499 ccbc 65e1 ddbd
00000040: b546 08bf 77c4 a33e 4689 d8bc 5db8 8c3f
00000050: c63d 38be 8ec1 69bd 7920 66bc 9364 973f
00000060: 05b0 73be aaf8 103f 320e c8bd ccf1 313e
00000070: 9778 a1bf 8da9 423c 92c3 133e 6021 fc3d
00000080: 83f9 2f3d 1d86 2c3f 0597 eabb e688 0b3e
00000090: 8842 82bf 43b6 093f e6c7 a63d 4533 5ebd
000000a0: 26af 21be d1db 153f 812c fcbc 7089 1b3b
000000b0: 1e8d 4fbf 631b ac3e 46e3 953a 5eca 12be
000000c0: 9d85 d63e 6887 913e ccce 4abe c305 2abe
000000d0: ee0e c3be a283 333f 35a0 803d 17c2 2bbb
000000e0: 1501 943e 78f9 a83e 2799 4f3d b422 b8bc
000000f0: 3d24 01bf 7d25 f33e d4ea 3cbd 8b0c 563d
00000100: 312e c73e b057 653e 1e70 a43d d0a5 91bd
00000110: 8f9b 89bf 885d 053f e3b8 c13d 1471 f13d
00000120: 5db8 503e 7a02 303f 59ff 56bd d6e4 6d3e
00000130: d01c 84bc 2da9 993e 8b6b 643e 38c7 0f3f
00000140: 9bee 34bd c0c1 713f 78de 81bd f83c db3e
00000150: b937 383e 15f4 a23e 5711 61bd c947 b43e
00000160: 7207 d0bd 01f6 a13f a587 9dbc 05fb f73d
00000170: bc51 2e3e ae43 273f 7275 57be cc61 833d
00000180: 3c04 223f 3930 20bd 9587 0ebe 6cd2 cabe
00000190: e6bf 143f bef1 7ebe fb08 c0bd ac8f b1be
000001a0: 6a84 a23e 1f21 3abc efc2 3cbe 34a4 3bbe
000001b0: e796 723e 8bde 40bf db83 453e 5a41 04bd
000001c0: 421e a03d 7345 46be 6173 f8bd 62e7 63be
000001d0: 3c8f cbbb deee 08bf fa03 9abd 7dbb 8dbe
000001e0: 07f0 1b3e b182 4ebf ee0e 36be 9e51 903e
000001f0: 3127 20bd d00d 023f 651f 6fbe 60a6 843e
00000200: 9c97 d83c 508e 46bf 441e b23d 1055 f93d
00000210: e873 36be 983f 8d3f 834b 14be d9af a4bc
00000220: ec80 dbbe 2b9b 6fbf b082 a8bd 6657 ac3e
00000230: 547a a23d dfbe 883f f904 323c 79e8 6c3e
00000240: 37e3 13be 0fad 673e c07c aebc 9343 753e
00000250: c7a2 4c3d 6601 00bf ad3a 9abd 0543 56bc
00000260: a798 37be 666d 933d b953 fc3d f6f4 b9bd
00000270: bdec 0d3e 37b6 8ebf e69e 6c3b 7d4a 52bd
00000280: dd49 8b3c fab7 803e 18ab 2c3c 268a 4bbe
00000290: b2d0 933e 10bb 12c0 bbb5 dfbd e133 203e
000002a0: 1849 6c3e eac0 1e3f b26c b2bc 962b 5e3d
000002b0: 655e bcbe 2065 3f3e 4316 0fbd 22be c1bb
000002c0: c6a9 3f3e 9042 333f a8f9 7c3d 66bb dfbe
000002d0: 39e7 643e eba9 443f 7a95 72bd 198f a2be
000002e0: c5e6 c63e 2b3d 043f 7fc4 9d3d 5b34 c9be
000002f0: 2c49 993f 9629 823f d8cc 10bd 26fc d5be
00000300: 8b5f febc 081d 5a3f 6e6b feba cfe2 c83e
00000310: 4472 07bd b63b 163f ebe9 893d 6392 fd3e
00000320: 62af 39be 3282 5d3f 98ee 923e a109 ab3e
00000330: eb6b 873d b64d 883e 5bb2 20bc 38d3 923d
00000340: 1b1a 08be 50d6 953f 08a7 833e bf08 da3e
00000350: 13ee a23d a9ce 973d d114 c23d 9270 073f
00000360: c439 f2be 7cc8 ba3e 8e04 d73d bd2e 393d
00000370: eff0 81be ca88 ed3e a705 94bd 2403 a83d
00000380: af89 3abf 210b 183f 661f 473e 0659 063e
00000390: 6a2a 2d3c cb86 10bf 2001 01be be09 563e
000003a0: 7a7c edbe c32d 133f 6d7f cf3d afb9 02bc
000003b0: 7c02 9a3e 999a afbf 5dd6 38be cc4a 80be
000003c0: 3873 033f 7c0f b83e 8201 bcbb 6970 be3e
000003d0: 5616 f83e a1a4 cd3d e3c6 c8bd 58a0 0e3f
000003e0: a660 f13e ba03 3a3f ff67 68bc 4393 823e
000003f0: 263a 463e 917a e53e 5caf 36bc 557e 573e
-0.6965869 0.22907391 0.09774041 -0.26568156 0.12608945 0.26408872 0.046182595 -0.33331448
-0.5406444 -0.051087525 0.054022323 -0.04131654 0.19157337 0.19862694 -0.024975516 -0.10834006
-0.5323289 0.31985828 -0.026432645 1.0993763 -0.17992315 -0.057069354 -0.014045828 1.1827568
-0.23797615 0.5662943 -0.097683325 0.17377394 -1.2614926 0.011881244 0.14430073 0.12311053
0.042962562 0.6739214 -0.007159116 0.13626441 -1.0176554 0.53793734 0.08143596 -0.054248113
-0.1578947 0.5853854 -0.03078294 0.0023733042 -0.810747 0.33614644 0.0011435531 -0.1433501
0.41898814 0.2842362 -0.19805449 -0.1660376 -0.38097328 0.7012273 0.06280557 -0.0026208216
0.28907076 0.3300283 0.050683167 -0.022477485 -0.5044592 0.4748954 -0.046122387 0.052258056
0.3890243 0.22396731 0.08029197 -0.07111704 -1.0750598 0.5209584 0.094590925 0.11789146
0.20382829 0.6875378 -0.052489612 0.23231825 -0.01612702 0.30011883 0.2230665 0.5616336
-0.044172864 0.94436264 -0.06341261 0.42819953 0.17990007 0.31826845 -0.054948177 0.35211018
-0.1015767 1.26532 -0.01922972 0.12108425 0.17023367 0.65337646 -0.21040896 0.06415138
0.6328771 -0.03910849 -0.13918908 -0.39613664 0.58105314 -0.24896905 -0.09376713 -0.34679925
0.3174165 -0.011360436 -0.18433736 -0.18324357 0.23690377 -0.75339574 0.1928858 -0.032288887
0.07818271 -0.1936243 -0.12131382 -0.22256234 -0.006212143 -0.5348948 -0.0752029 -0.27682105
0.15228282 -0.8066817 -0.17779133 0.2818727 -0.039099876 0.50802326 -0.2335182 0.25908184
0.02643948 -0.775609 0.08697179 0.121744275 -0.17817652 1.1035032 -0.1448193 -0.020103382
-0.42871797 -0.9359614 -0.08228052 0.3366043 0.079334885 1.0683249 0.010865443 0.23135556
-0.14442144 0.2262461 -0.02129972 0.23951559 0.049959924 -0.50002134 -0.07530723 -0.013077502
-0.17929326 0.071986005 0.12320656 -0.09079926 0.1385984 -1.1149358 0.0036105453 -0.05134057
0.017002994 0.25140363 0.010538839 -0.19876918 0.2887016 -2.2926674 -0.10923334 0.1564479
0.23074758 0.62013113 -0.021780346 0.054240786 -0.36790767 0.1869092 -0.03493334 -0.005912558
0.18717107 0.7002344 0.06176153 -0.4369766 0.2235383 0.76821774 -0.059224583 -0.317498
0.38847938 0.51655835 0.07703494 -0.39297757 1.1975455 1.0168941 -0.035351604 -0.41793936
-0.031051418 0.8520055 -0.0019410679 0.3923554 -0.033067957 0.5868486 0.067340694 0.49525747
-0.1813331 0.8652679 0.28697658 0.33405784 0.066123806 0.2662179 -0.009808148 0.07169193
-0.13291208 1.1706028 0.25713372 0.42584798 0.07955565 0.07412464 0.09476627 0.52906144
-0.47309697 0.36481082 0.104989156 0.04521059 -0.2537913 0.46393424 -0.072276406 0.08203724
-0.7286634 0.5939198 0.19445571 0.13119897 0.010569194 -0.5645568 -0.12598085 0.20902154
-0.4638403 0.574917 0.101317264 -0.007978841 0.3008002 -1.3719054 -0.18050523 -0.25057065
0.51347685 0.35949314 -0.0057374844 0.37195137 0.4845454 0.10041166 -0.0980356 0.55713415
0.4714405 0.72661936 -0.014184951 0.25502977 0.1935812 0.44820073 -0.011150207 0.21044286

fc1.bias f4 [128]
00000000: 3652 52bd 1b82 963c a6b7 5fbd 09a8 4cbe
00000010: 2222 adbc 0cf9 cb3d 256a c3bc 23d8 cdbd
00000020: 935c d33b 9985 183d d750 69bd 1516 22be
00000030: 401e e0bd 3b63 08bd 9e90 963d 25e1 393e
00000040: ea12 7d3b f8ad 953d 6c89 f03d 2749 b6bd
00000050: 44ba 8abd e4a1 0a3e bea6 153e 4021 463d
00000060: 0f8a 21be d847 ed3d b1c1 2cbe bb01 d13d
00000070: 3222 c63c 5617 873d e0bf 4bbe 6825 93bd
00000080: 7c76 b13d 73e1 203e f454 6fbd ec62 3a3e
00000090: 0f91 3abd 8e1f fcbd 170b b5bd 7e62 503c
000000a0: a69b 14bd e45d ca3d 9b5a e7bd 02dd 6dbd
000000b0: 0f22 4fbe 68a5 2a3e 3f74 1dbd 53c7 24be
000000c0: e5d3 21bc bd58 c6b9 0412 683d dbb6 b7bc
000000d0: 107c 033e ef3d 90bd 283a 7abd b67a 46bd
000000e0: 6746 153d 587e 273e 01be 19bc ead3 203e
000000f0: 733b 243e 9caa d9bd 84bc 8fbc 2f59 c5bd
00000100: 7ef7 ad3d 9cf6 92bd 7617 7f3d 7788 473c
00000110: dd38 09be a482 0cbe fb26 4cbe 8db9 e9bd
00000120: 922c 693d 9f33 4b3c bb34 1d3e fdcf 37be
00000130: 448d c3bb b270 3bbe 6778 9c3a b151 983d
00000140: b37e 3bbe 499b 383e 62dd 81bd 4f37 393e
00000150: 4e50 0cbd 7131 ed3d e033 3e3e 253c 98bd
00000160: fa38 4bbd 1c4e db3d 0ff3 32be 7b73 f73d
00000170: a149 03be d204 423e 64fe 08be 5a07 acbd
00000180: 0af7 1b3e fd03 b6bd f02a 333e e5d0 0f3e
00000190: 3c0d 3f3e 9ea2 4abe 291a 163b 1c7b 89bd
000001a0: e82a 473d eed5 1dbe a16e ab3d e9ae 17bc
000001b0: e29c c5bd 1512 3cbe bba7 da3d a14a 97bd
000001c0: 5d3d 1a3e 4dbb 143d 2c55 7e3d 7694 fdbc
000001d0: e0a1 e7bc 6e0a 8ebd 6e00 35be a869 033e
000001e0: a0a0 03be 4cb5 f33d 73d6 8cbd 90f2 023e
000001f0: 1f1b 333e 439e ffbd a696 2c3e 42d8 9b3b
-0.051347934 0.018372586 -0.0546185 -0.19985975 -0.02113444 0.09959611 -0.023854325 -0.100509904
0.0064502447 0.037236784 -0.05696186 -0.15828736 -0.1094327 -0.03329776 0.07351802 0.18152292
0.003861601 0.073085725 0.11744961 -0.089006715 -0.067738086 0.13538319 0.14614388 0.048371553
-0.15775321 0.11585969 -0.16870762 0.10205408 0.024186227 0.06596248 -0.19897413 -0.07184869
0.08665177 0.15711002 -0.058430627 0.18201798 -0.045548495 -0.12310706 -0.08840006 0.012718795
-0.03628125 0.098811895 -0.112965785 -0.058072098 -0.20227836 0.1666466 -0.03844094 -0.16091661
-0.00987718 -0.00037831618 0.056657806 -0.02242606 0.12840295 -0.07043063 -0.06109062 -0.04845687
0.036444094 0.1635679 -0.009383679 0.15705839 0.16038303 -0.10628244 -0.017545946 -0.09636151
0.08494471 -0.07175943 0.062278233 0.012178532 -0.13400598 -0.1372171 -0.19936745 -0.11412344
0.05692727 0.012402444 0.15352146 -0.17950435 -0.005967768 -0.18304709 0.0011937738 0.074374564
-0.1831005 0.18027987 -0.063410535 0.18087505 -0.034256272 0.11581696 0.18574476 -0.07433347
-0.049614884 0.107082576 -0.17475532 0.12082573 -0.12821056 0.18947151 -0.13378292 -0.0839984
0.15230957 -0.088874795 0.17496848 0.1404453 0.18657392 -0.19788596 0.0022903776 -0.067129344
0.048624903 -0.15413639 0.0837071 -0.00925801 -0.09649064 -0.18366273 0.10676523 -0.07387281
0.1506247 0.036311436 0.062092945 -0.03095458 -0.02827543 -0.06935583 -0.17675945 0.12833273
-0.12854242 0.11899814 -0.068768404 0.12787843 0.17490815 -0.12481358 0.16854343 0.0047560045

bn1.weight f4 [128]
00000000: 009d 873f d877 903f e069 583f 7e29 d53e
00000010: 3913 053f bc82 f63e 7694 4e3f f758 873f
00000020: 06f5 ee3e cf05 7a3f 9471 0d3f 72cf 7c3f
00000030: cf90 e53e 6fde 7f3f d3c4 0b3f 5c65 1b3f
00000040: a280 ad3f e4cd b73e f5c1 d73e a96a 8a3f
00000050: 052a 643f 4afb d53f f43a 133f 0900 383f
00000060: 9bcf 7c3f 98a6 133f d33d 493f b4ef f23e
00000070: f35d 433f 5dd5 463f b30d 123f ac62 523f
00000080: 60a2 793f fe70 f73e c7a9 0b3f 2094 173f
00000090: 9e18 0b3f f46b 473f b90a af3e 437a 423f
000000a0: 0bca 373f 7110 7d3f 6c03 603f 2eb8 213f
000000b0: ba14 713f b329 763f ba0f 7b3f 823a 583f
000000c0: b798 e43f eeb5 0e3f 0487 b93f d705 a93f
000000d0: 8b43 533f dfaf 343f bf61 9e3f 2911 fa3e
000000e0: 740c 0b3f a0b1 2e3f 4e0a 7a3f 8746 193f
000000f0: ba6e 4c3f e41b 0b3f 82ee 783e 4e88 393f
00000100: 3215 783f 97b4 de3e 00df 663f a9e5 393f
00000110: ac2a 223f 61ac 613f aa80 443f f30f 543f
00000120: a376 443f 97cf 2f3f 570f 233f ef49 493f
00000130: 0e8a 4c3f dd73 d23e d5d9 123f b0a0 eb3e
00000140: b5bb 793f 858e 423f 3d61 3a3f 5762 aa3f
00000150: fbb4 413f 58b7 393f bb21 a33f 945e 1b3f
00000160: 2594 733f f2f4 5e3f 7c71 963e 8f56 d03e
00000170: 84fc d93e 20a2 e63f 5c96 383f 6ec7 f13e
00000180: f872 6f3f 0810 043f aec6 413f fe10 1a3f
00000190: 69e0 0a3f c994 863f b82e 4a3f 5f7c 533f
000001a0: 1d10 9c3e a26d 273f 0d8d 7f3f f17a 0340
000001b0: 2cd5 a23f aeda 413f 6b6c f93e 2e9c 2a3f
000001c0: 901c 463f 6024 543f 6a8c 6e3f 4882 113f
000001d0: f695 2f3f eb58 7a3f 2405 683f bbfc 883f
000001e0: 8d77 973f 5497 483f 41f8 a63f f3d5 313f
000001f0: 7a12 5a3f 26ac b73f d56b de3e 54f5 ba3f
1.0594788 1.1286573 0.8453655 0.4163322 0.51982456 0.48146617 0.80695283 1.0574025
0.46671313 0.97665113 0.5525143 0.98754036 0.44837043 0.9994878 0.54597205 0.6070154
1.3554881 0.3589927 0.42140165 1.08138 0.89126617 1.6717312 0.5751183 0.71875054
0.9875428 0.57676077 0.7860996 0.47448504 0.7631523 0.77669317 0.57052153 0.8218181
0.9751339 0.48328394 0.54555935 0.59210396 0.5433444 0.778991 0.34187868 0.75967807
0.7179267 0.9885321 0.8750522 0.6317166 0.9417225 0.9615738 0.9807087 0.84464276
1.7859105 0.5574635 1.4494328 1.3204907 0.8252494 0.7058086 1.237358 0.48841217
0.54315877 0.68239784 0.97671974 0.5987324 0.79856455 0.5433943 0.24309734 0.7247361
0.9690734 0.43497154 0.9018402 0.7261606 0.6334636 0.88153654 0.76758826 0.82836837
0.76743525 0.6867613 0.6369528 0.7862844 0.79898155 0.41104022 0.57363635 0.46021032
0.97552043 0.7599872 0.72804624 1.3311261 0.7566678 0.72545385 1.2744669 0.6069119
0.95147926 0.87092507 0.29383457 0.4069104 0.42575467 1.8018227 0.7210443 0.47222465
0.93534803 0.5158696 0.75693786 0.6018218 0.5424867 1.0514156 0.7897754 0.8261165
0.30481043 0.6540166 0.998246 2.0543787 1.2721305 0.75724304 0.4871553 0.6664456
0.7738733 0.82868004 0.93183005 0.5683942 0.685882 0.9779193 0.90632844 1.0702127
1.1833359 0.7835591 1.3044511 0.69467086 0.85184443 1.434941 0.43441644 1.4606118

bn1.bias f4 [128]
00000000: 4d37 3bbe 0949 1cbf 1c8d fcbe cbd6 5abf
00000010: 350e 51bf 7889 37bf ac6c 5abd c4ea 22bf
00000020: ad0f 26bf bd57 40bf a5cd 37bf bdb6 69bf
00000030: 53ac 06bf e86d fcbe fa62 0dbf 1957 16bf
00000040: f34b 7fbe 908d 98be 7a2a 09bf 9713 ae3e
00000050: a085 71bf 17d9 35be 71dc 14bf 9466 f53c
00000060: ec53 8bbe 6ff1 3ebf d635 a5be e7d5 48bf
00000070: e2dd 08bf 1fcf 03bf 5ac6 3ebf 0685 44bf
00000080: 9fd7 e7be d871 46bf 07de 19bf e31a 0dbf
00000090: 8e0d 93bd fd51 fbbe 3f2c 03be 3739 30bf
000000a0: 6586 abbe b4a9 9bbe c856 4abf 5e3e 0cbf
000000b0: d49f 23bf 8505 c8be cfdf 3abe 633a 2cbf
000000c0: 3c02 473e a6ff b13c 2de3 2c3e e5a5 e1be
000000d0: 4af0 e6be d4db 1fbf ef0d 00bf b805 83bf
000000e0: 63e5 28bf a962 36bf 54ac bbbe a95f 9dbe
000000f0: 5282 5cbf e2c0 01bf 2705 25bf 4524 1dbe
00000100: e829 28bf 02fc e3be 1db5 09bf 0b80 f9be
00000110: 258c 14be 9c9c 553d 5d58 0ebe 8269 2fbf
00000120: f7c2 f3be 8d2f 63bf 2669 02bf e414 11bf
00000130: 010d 13bf dd81 37bf 2149 28bf e986 71be
00000140: 468d aebe 5a72 11bf 19ce 16bf 8a40 04bf
00000150: f49c a9be cea2 37bf 3d4f 4fbe 2a44 c1be
00000160: 682f 06bf 1b88 683e 1930 393c ffb6 32bf
00000170: 4fa9 17bf a2fd 263d 88b1 0bbf 9ad7 edbe
00000180: 2b3a 22bf 991c 10bf 9c78 f1be 0147 25bf
00000190: 2d17 62bf 7b88 65bf c0d2 18bf 2be6 4bbf
000001a0: d8ab 1bbf e419 c1be 9931 c6be c189 8dbe
000001b0: 6cae cfbd 9c65 0bbf bb47 4bbf 2fb2 24bf
000001c0: d3c5 2dbe 457f 8abe 8dba 7fbe d295 46bf
000001d0: 72b7 c8be b99e 14bf c2fc 92be 81e4 92be
000001e0: 5b34 e83c 23ce 88be 4e09 b6be f390 0abf
000001f0: bb26 ebbe 7b73 d8be 4a24 09bf 358d 20bd
-0.18282814 -0.6104894 -0.49326408 -0.85484 -0.81662303 -0.71694136 -0.053326294 -0.63639474
-0.6486767 -0.7513388 -0.71798164 -0.9129446 -0.52606696 -0.49302602 -0.5522915 -0.5872665
-0.24931316 -0.29795504 -0.5358044 0.3399932 -0.9434452 -0.17758594 -0.58148867 0.02995614
-0.27212465 -0.7458715 -0.32267636 -0.7845139 -0.53463566 -0.51487917 -0.7452141 -0.7676548
-0.45281693 -0.7751746 -0.6010441 -0.5511915 -0.0718032 -0.4908599 -0.12809847 -0.688373
-0.33500972 -0.3040291 -0.7903867 -0.54782665 -0.63915753 -0.3906671 -0.18249439 -0.6727659
0.19434446 0.021728348 0.16883536 -0.4407188 -0.451052 -0.62444806 -0.5002126 -1.023612
-0.65975016 -0.71244293 -0.36654913 -0.30737045 -0.86136353 -0.5068494 -0.64460987 -0.15345867
-0.65688944 -0.44528204 -0.5379198 -0.48730502 -0.14506586 0.052151307 -0.13900895 -0.6852037
-0.47609684 -0.8874443 -0.50941694 -0.566725 -0.5744172 -0.7168253 -0.65736586 -0.2358662
-0.34092158 -0.5681511 -0.5890823 -0.5166098 -0.33127558 -0.71732795 -0.20245071 -0.37747318
-0.52416086 0.2270817 0.011302971 -0.6981048 -0.5924272 0.040769227 -0.54567766 -0.46453553
-0.6337001 -0.56293637 -0.4716233 -0.6456147 -0.88316613 -0.8966138 -0.5969658 -0.79648083
-0.6080909 -0.37715065 -0.38709715 -0.2764416 -0.1014069 -0.5445192 -0.79406327 -0.64334387
-0.16969995 -0.27050224 -0.24973507 -0.7757236 -0.39202458 -0.5805469 -0.28708464 -0.2868996
0.028345278 -0.2671977 -0.35553974 -0.54127425 -0.45927987 -0.42275605 -0.53571 -0.039197166

bn1.running_mean f4 [128]
00000000: aaab 6c41 4d01 f440 2314 54bf 96f9 f73f
00000010: fcf8 72c1 3237 2541 6c50 47c1 599c 06bf
00000020: 20ad f740 b3f9 d340 1e7e 38c1 1038 0641
00000030: f135 c8c0 d158 a8bf 7443 3941 4cb4 48c1
00000040: ed30 0a3f 5e45 b9be f9ac 1041 6c66 ad40
00000050: da67 82c0 7aec d4be 2c72 65c1 da23 a040
00000060: 6d0b da40 6bef ccbf 1b1c 4d41 8bf3 e1c0
00000070: f5b6 2141 d3ca 6ec1 00d5 2640 2c9b 0e41
00000080: f11e bc40 07fd 4ac1 6416 b53f 4f2f 3ac1
00000090: 3700 1241 fe71 8241 826d 64bf 950c a4c0
000000a0: 8340 a240 dbd8 ce40 ca76 9ebf 7282 813f
000000b0: a35e 97c0 f913 8c41 a9d4 4ec0 0675 e940
000000c0: 9288 9940 0b83 98bf 1d14 f740 29bc 07bf
000000d0: bddc d440 8500 0e40 f8f6 3541 b3ce 89c1
000000e0: bcb8 4ec0 4bd1 f8c0 fd97 b5c0 5e5f 4941
000000f0: 38ae 24c0 de48 7141 b7f0 e540 7c42 cc40
00000100: b56b a7bf c33d 19c1 4a61 3e41 7891 a4c0
00000110: 087d aa40 ff98 b93e 0c0b 1141 1164 17c1
00000120: 446d 89c1 31ec 60c0 7cc9 c2be a89b e63e
00000130: f1bd 9c40 b0c3 45c1 8c2a b8bf 2fd2 9cbf
00000140: ae3c 81c0 8ce4 dc3d 2ab8 7241 06a2 0d3f
00000150: 8781 5341 24aa e2c0 bfc5 a041 473d cb40
00000160: 62ad e33c 4ba2 ff40 1c6a b3c0 4162 f740
00000170: ebbb 5441 d043 1e40 2412 9cc1 b91a a1bf
00000180: a71e 0e41 cfe6 7bbf 15eb 6140 617e 8ebf
00000190: 7d17 c5c0 104a adc0 e02c 4440 e4e7 abbf
000001a0: 42f0 adc0 3345 9740 8114 6541 2f28 76c0
000001b0: d6a7 5440 e792 6841 d4f7 5fc1 95a8 7a40
000001c0: 94b4 2041 7776 00c1 85ad 07c0 17ee 3fc1
000001d0: b9d1 90c1 6533 65c0 8865 3a41 85d5 6341
000001e0: 34bd 0141 f766 8541 c5c9 2f41 164a 8f3f
000001f0: 6490 ae3f 24a6 58c0 8380 3ec1 a4c4 87c0
14.79191 7.625159 -0.82843226 1.9373043 -15.185787 10.325975 -12.457134 -0.5258232
7.7398834 6.624231 -11.53079 8.388687 -6.2565846 -1.3152105 11.578968 -12.544018
0.53980905 -0.36185735 9.04223 5.4187527 -4.075177 -0.41586667 -14.340374 5.0043764
6.8138947 -1.6010565 12.819362 -7.0609794 10.107167 -14.924518 2.6067505 8.912884
5.878777 -12.686774 1.4147458 -11.63655 9.125052 16.30566 -0.89229596 -5.126536
5.070375 6.4639716 -1.2380002 1.0117934 -4.7303023 17.509752 -3.2317297 7.295535
4.797921 -1.1914991 7.721205 -0.53021485 6.6519456 2.2187817 11.372795 -17.225927
-3.2300253 -7.7755485 -5.6748033 12.585783 -2.5731335 15.08029 7.185634 6.383116
-1.3079745 -9.577579 11.898752 -5.1427574 5.3277626 0.3624954 9.065197 -9.46193
-17.178352 -3.514416 -0.38044345 0.4504063 4.898186 -12.360275 -1.4387984 -1.2251643
-4.038657 0.10785779 15.169962 0.55325353 13.219123 -7.083269 20.096556 6.35123
0.027792636 7.988561 -5.606703 7.730744 13.295878 2.472889 -19.508858 -1.258628
8.8824835 -0.9839906 3.5299733 -1.1132318 -6.159117 -5.415291 3.065239 -1.3430142
-5.4355783 4.727197 14.317506 -3.8462026 3.322744 14.535865 -13.998005 3.9165394
10.044086 -8.028922 -2.1199658 -11.995627 -18.102404 -3.5812619 11.649788 14.239629
8.108692 16.675276 10.98676 1.1194484 1.3637815 -3.3851404 -11.906375 -4.242754

bn1.running_var f4 [128]
00000000: 81e5 c442 a28d a943 fb21 d642 a3bd bb42
00000010: 614d 9942 d2f6 1b43 a6a1 3642 9b1a dc42
00000020: ed59 d642 5f85 3542 b6ec b542 402f 0543
00000030: 74af 3d42 610b 3842 f235 d542 d05c de42
00000040: 1719 1b42 7055 8b43 f012 d943 3ca9 7c42
00000050: dcbf 0242 09de b543 b4a7 0b43 a945 7d41
00000060: 0a79 ae42 0cc4 a843 18ca 6243 d879 9d42
00000070: 6f7e 8543 fae4 ac42 f413 4843 8319 9842
00000080: 1121 c042 70b5 8a42 4e64 ac42 3e0f ac42
00000090: cbdf d842 a029 c343 9b3a 9743 02d7 2c43
000000a0: 5135 b842 ce74 b742 4a12 3442 0ff8 7f42
000000b0: e039 a942 956c ec42 2da3 5b41 baa7 0743
000000c0: 7e85 dc42 fc73 1242 7128 a442 9079 be42
000000d0: 016f 3f43 5d61 f542 8d5c de42 95c9 7942
000000e0: f030 3e43 3a48 4843 51c8 5842 e331 9442
000000f0: e989 0642 ce9b 8343 a255 4c43 0d90 d843
00000100: a347 e242 ba93 fd42 4fa7 3b43 9cca 3a43
00000110: d6b9 7c42 78e3 5c43 1a8f 0043 9ebb 2942
00000120: 3b09 8842 ffb4 b942 dc20 1143 403c dc42
00000130: 03a1 9142 f6bf 1342 ba46 2b43 56a4 ca42
00000140: a5e1 2b43 7da8 4d42 e823 b842 ab4a 0242
00000150: c971 a842 22dd 6742 9993 d642 de7d 8343
00000160: 4f09 3742 2e5d 8743 3421 6343 4b0b 0943
00000170: 6ce2 1c43 733f 3141 4b59 9442 7c8c 1b42
00000180: 7b69 5243 4227 ba42 ac24 1e43 1aee 0443
00000190: b525 ef42 f7c2 be41 33fb 7843 a65c f941
000001a0: 917d 0a43 c401 4142 9932 da42 12fa 4641
000001b0: a7ac 4e44 8eba 5f42 2b33 e342 69cb 2f43
000001c0: 4531 8642 8973 5e42 1d3c 3e43 b895 be42
000001d0: bad2 4b43 5c6c 4e43 4037 1143 4e61 8d43
000001e0: de3d 6f42 248b f942 7184 7942 ea9b b442
000001f0: 4692 2b41 7541 4642 8741 8a42 89e6 9f41
98.44825 339.1065 107.06637 93.870384 76.65113 155.96414 45.65786 110.05196
107.17564 45.380245 90.962326 133.18457 47.42134 46.011112 106.60536 111.181274
38.7745 278.66748 434.14795 63.165268 32.687363 363.73465 139.65509 15.829507
87.236404 337.53162 226.78943 78.737976 266.98776 86.44722 200.07794 76.04983
96.06458 69.35437 86.19591 86.02977 108.437096 390.3252 302.45786 172.83987
92.10413 91.728134 45.01786 63.992245 84.61304 118.212074 13.727338 135.65518
110.26073 36.613266 82.07899 95.23743 191.43361 122.69016 111.18076 62.446857
190.19116 200.28214 54.19562 74.097435 33.634678 263.21722 204.3345 433.1254
113.139915 126.78853 187.65355 186.79144 63.18148 220.88855 128.55899 42.43322
68.01803 92.85351 145.12836 110.117676 72.814476 36.93746 171.27628 101.32097
171.88142 51.41454 92.07013 32.572918 84.22224 57.96595 107.28828 262.98334
45.75909 270.72797 227.1297 137.04411 156.88446 11.077991 74.1744 38.88719
210.41203 93.076675 158.14325 132.93008 119.57365 23.845198 248.98125 31.170238
138.4905 48.251724 109.09882 12.436052 826.6977 55.932182 113.59994 175.79457
67.09623 55.612827 190.23482 95.29242 203.82315 206.42328 145.21582 282.7602
59.810417 124.77176 62.379337 90.30452 10.723211 49.563923 69.12798 19.987566

fc2.weight f4 [64, 128]
00000000: 244a 293d f37c 54be 3309 7f3e 673e db3e
00000010: 57f8 7d3e 21d8 033f 5ec7 763e 444f 26be
00000020: e740 f3bc 1133 e3bd a445 e0bd ecb0 203e
00000030: 7523 c53d 5a7d 9b3e 80cf e4ba b641 2e3f
00000040: f9f0 9b3e a59d ab3d 3cbb c2bd a591 0e3e
00000050: 8019 8d3e 251c 953e ef7a 913d 0715 2a3f
00000060: 9878 903e b70d f9bd 45e2 77bf 74ab 3fbe
00000070: 6aa3 c53e 0212 423f 6591 113e 2aba 303d
00000080: 2180 013e 3408 ef3d cc56 2b3e aad0 b4bd
00000090: 096d 29bd ccdf 033e 9ba9 eebe 780a 2d3e
000000a0: 5a07 79be a724 e63d 9399 d73d 44ec 083c
000000b0: 0ad5 483e ff9a 0b3f 0a62 92be b210 243f
000000c0: a672 033e 2f95 3ebf 644b 8f3e 084a b03e
000000d0: ee18 1bbd 2419 dc3d 7ac1 7dbe 2863 85be
000000e0: 8b5a 50bd 6c80 3d3e 5b5e 843e 5544 843d
000000f0: 89ff c53e 5f5a a5be 2a95 243d 04fb 88bd
00000100: fba8 533e 60a6 fb3d 5c4b 1a3e c67d 883d
00000110: 62f9 e1be 782e b5be 45f2 0fbf 0c1b aa3e
00000120: 6f6b 7e3e 65e8 90bc ce9c c4bd 3521 21bf
00000130: 8c95 b8be d5bd 013f 50d9 3b3d 00bd 84ba
00000140: 24eb f93e 3b28 d5bd 9311 223e 23cb dd3e
00000150: 4afd 773e 2ac9 a73e 4efe 4f3f d8be e2bb
00000160: 9750 d73e 968c 8dbe c506 00bf eb29 aebd
00000170: e9e2 043e c03c a3bd a4bd d13e 35b9 803e
00000180: 85e4 61bf 38e2 603d 1cc2 123e 29e9 26bf
00000190: 5e79 c23d 8152 983e bddb 363e 4284 043e
000001a0: d91b d43b bc45 97be 7470 db3e 94e5 573f
000001b0: 23ff 4c3e ac21 e0be be12 8cbc c54f 1dbf
000001c0: 16e8 ddba a020 ec3e 7ebd c43e cb2a 91be
000001d0: 46b0 f53e 0acc 2b3e 8719 c73e 6597 593e
000001e0: 81d9 df3d a805 0dbf 2ac1 1b3c bd55 f93e
000001f0: 969f 1a3f d8f7 6f3e 5cc0 4dbe 66af 8f3d
00000200: 564e 24be d297 e2be 1539 4a3f 889c 9e3e
00000210: 54b8 c83d 49e8 893e bee1 5e3e d2a5 2dbe
00000220: 3045 1c3e b495 b63d 21d3 85bc 3b66 66b9
00000230: 1791 ca3d 5847 4e3f 1585 82bd 8773 323e
00000240: 00fc 2c3e 7cd0 69bc 611b 093e f34f aa3e
00000250: c710 033f a5f8 9b3c 2981 c43e 5146 49be
00000260: 1d42 f73d 9aba 1c3e 5b71 30bf 6808 bc3e
00000270: 0cda d5bd 21a3 4fbe 62be c13d 5e87 9cbe
00000280: 4a5c e3bb e4db 093e a54e 063f 354b 9e3e
00000290: 6a16 a23e 65f6 08bf 96aa a4bb 3c0b 0c3e
000002a0: 747a 883e cac8 1d3e 330b 013e 4d0e 9a3e
000002b0: 5652 293e b588 75be a2c6 98be 22a1 393e
000002c0: 36c8 553f 0b22 1e3f 3849 953e 59e9 c83d
000002d0: 53c8 33bf 97b9 383e 2d26 96be 0039 cb3d
000002e0: 8e62 c93e 0fa5 163e defc 4dbf ab8c ab3c
000002f0: ee8f 413e 57bc 9dbe 661b 8f3e 8a3b 92be
00000300: d1d2 183f 7875 b13d 68c9 0cbf ff35 943e
00000310: 384c 803e 9edc fabe a136 25be 78ac 213f
00000320: f507 90bc d1ad 873e dbe7 f8be 0a04 7abc
00000330: 7d00 15be 0f24 9f3e 9113 ad3d a871 c43d
00000340: 50fa 06be 7e29 d03e 37b3 e1bc 5e57 06be
00000350: 2386 323d 4257 20bf f796 89bd e700 263d
00000360: 454b cb3e 03f2 04bf 550d b5be 7be4 c13d
00000370: 6205 b83d 8a9b a63d 5c1e a23e f753 3c3f
00000380: a0f5 e2be 3da2 913d 9229 87bd c70b 39be
00000390: e593 fc3d 2e19 1d3f 33ab 7a3d ecaf 263e
000003a0: a574 963e 5cc4 5bbe e1f6 db3e 26c1 503e
000003b0: 8197 153e 7e70 debe f6fd dbbe a2c6 60be
000003c0: 2caf 2ebc b2e8 063f 52e4 b23d c666 55be
000003d0: a5a5 bc3e e53c 24bd 1224 963d 26ef fb3e
000003e0: 763b b73e 29ee d03d 1d57 0bbe 4bc7 7a3e
000003f0: 775f a93e 49a3 263e 3fb6 1e3e 5608 e33b
0.04133047 -0.2075079 0.24905853 0.42821047 0.24801765 0.5150166 0.2409949 -0.16241175
-0.029694034 -0.110937245 -0.10950783 0.1569249 0.096259035 0.30369073 -0.0017456859 0.68069017
0.30457285 0.08379678 -0.095083684 0.13922746 0.27558517 0.29123035 0.07103526 0.66438335
0.28217006 -0.12160819 -0.96829635 -0.18717748 0.38601238 0.7580873 0.1421562 0.04314629
0.12646534 0.116714865 0.16732329 -0.08828862 -0.04136375 0.1287834 -0.46613774 0.16898525
-0.2431921 0.1123746 0.10527339 0.008357111 0.19612518 0.5453338 -0.28590423 0.64087975
0.12836704 -0.74446386 0.27987206 0.3443148 -0.03786557 0.10746983 -0.24780837 -0.26052213
-0.0508676 0.1850602 0.25853238 0.06458346 0.3867152 -0.3229551 0.040181316 -0.066885024
0.2066993 0.12287593 0.1506781 0.066646144 -0.44135576 -0.35387015 -0.5622905 0.3322376
0.2484567 -0.01768894 -0.096002206 -0.62941295 -0.36051595 0.50680286 0.045861542 -0.0010127127
0.4881221 -0.10408064 0.15827017 0.43319044 0.24217716 0.32770663 0.81247413 -0.006919723
0.42053673 -0.2764632 -0.5001033 -0.08504089 0.12977184 -0.079705715 0.40964997 0.25141302
-0.8823932 0.05490324 0.1433186 -0.65199524 0.09495805 0.29750445 0.17857261 0.12941077
0.0064730463 -0.2954539 0.42859232 0.84334683 0.20019202 -0.4377569 -0.01709878 -0.61449844
-0.0016930129 0.4611864 0.3842582 -0.2835296 0.47986048 0.16777053 0.38886663 0.21249159
0.109301575 -0.55086756 0.009506503 0.48698226 0.6039976 0.23434389 -0.2009291 0.070158765
-0.16045508 -0.44256455 0.7899335 0.309788 0.09800783 0.26935032 0.21765801 -0.16957787
0.15260768 0.08915272 -0.016336026 -0.00021972593 0.09890955 0.8057761 -0.0637304 0.17426883
0.16893005 -0.014270898 0.1338935 0.3326412 0.51197475 0.019039461 0.3837979 -0.1965573
0.12073157 0.15305558 -0.68922967 0.36725163 -0.1044198 -0.20277072 0.09460141 -0.30572027
-0.006938492 0.13462788 0.5246375 0.30916753 0.31657726 -0.5350097 -0.0050252182 0.1367616
0.26655924 0.15408626 0.12601928 0.30089036 0.16535315 -0.23977931 -0.29839045 0.18127874
0.8350862 0.61770695 0.29157424 0.098101325 -0.70227545 0.18039547 -0.29326 0.09922981
0.39333004 0.14711402 -0.8046397 0.0209411 0.18902561 -0.30807754 0.2795059 -0.2856105
0.5969668 0.086649835 -0.5499482 0.28947446 0.2505815 -0.48996443 -0.1613412 0.6315379
-0.01758192 0.264998 -0.48614392 -0.015259752 -0.14550968 0.31082198 0.084509976 0.09591991
-0.13181424 0.40656656 -0.027551277 -0.13119265 0.043584954 -0.62633145 -0.067182474 0.040528204
0.39705864 -0.5193178 -0.35361734 0.09467407 0.08985402 0.081351355 0.31663787 0.7356562
-0.44328022 0.071110226 -0.06599726 -0.18070899 0.12332896 0.61366546 0.061198425 0.16278046
0.29385868 -0.21461624 0.4296179 0.2038618 0.14608575 -0.434452 -0.42967194 -0.21950772
-0.010661881 0.52698815 0.08734955 -0.20839986 0.36845127 -0.040097136 0.073310986 0.49205893
0.35787553 0.102016754 -0.1360745 0.24490087 0.33080646 0.16273226 0.15499209 0.006928484

fc2.bias f4 [64]
00000000: a740 033d 2dd6 4f3c 1a1e 5a3d fc62 dcbc
00000010: a197 9a3d 8a31 893c bdac 643d aba0 8c3d
00000020: 4a74 9ebb c168 aa3d 7877 3f3d e12f 5ebd
00000030: 648f d03b 06d5 2fbd 181e 893c 4487 5abd
00000040: 853d 06bd d7a2 15bd 1a6f afbd 2a3d a63d
00000050: b28c f7bc 579b ddbc 95cf edba 64b7 ab3a
00000060: c130 98bd 1888 c93c 5b5b 61bd 02d4 8fbd
00000070: 0c53 59bd a376 8dbd 52d6 8d3d 1ddd 093d
00000080: 94b1 9e3d e0c8 91bd 976f 8fbd 788a 0f3d
00000090: c274 29bd 033c ddbc fbea 54bd 005f 98bd
000000a0: 1b78 55bd f22d 63bd 5c2a 393d cece 19bb
000000b0: af80 623d c543 9d3d ce7e 6f3d a943 93bd
000000c0: b0e1 533d 562b 4e3d 74e4 23bd 6439 99bc
000000d0: 7203 f43c 4f52 14bc 4d44 5dbd 913d 80bc
000000e0: f11e c9bc 7106 5d3d aeb5 1d3d 6d29 623d
000000f0: 0be8 72bb 92fa a4bd 2cbb b03d c63b 313b
0.03204408 0.012685341 0.053251363 -0.026902668 0.07548452 0.016747255 0.0558288 0.068665825
-0.00483564 0.083207615 0.046744794 -0.05424488 0.0063647497 -0.042927764 0.016737983 -0.053351656
-0.032773513 -0.03653225 -0.08566113 0.08117135 -0.030218456 -0.02705161 -0.0018143529 0.0013100919
-0.07431174 0.024601027 -0.055018764 -0.07022859 -0.053057715 -0.06907394 0.06925644 0.033658136
0.07748714 -0.07118392 -0.07003706 0.035044163 -0.041371115 -0.027006155 -0.051981907 -0.07439995
-0.052116495 -0.05546374 0.045206413 -0.0023469212 0.055298503 0.07678942 0.05847054 -0.071906395
0.051728904 0.050334297 -0.04001279 -0.018704124 0.0297868 -0.009052827 -0.054020215 -0.015654357
-0.024550887 0.05396122 0.03850334 0.055215288 -0.0037064578 -0.08055605 0.0862945 0.0027043684

bn2.weight f4 [64]
00000000: 3819 a13f aa25 ac3f 3433 b03f 77b0 8f3f
00000010: 67a4 d73f 3d8c ce3f 3ff4 d83f e160 b33f
00000020: 1e25 cd3f 339f 9a3f af5f c73f 1ba7 a93f
00000030: 33e4 da3f f4c7 ba3f 4552 f93f b090 9f3f
00000040: 043a 8d3f 544a ef3f 8a07 983f 2c2e a53f
00000050: a255 a03f 3ed7 b33f 805c 0840 ec1a 0540
00000060: 2515 e93f daf0 f13f 9cc6 1040 cb0e 723f
00000070: 534f 403f 93f1 fb3f 8e36 e23f 2c18 a53f
00000080: 7bbf c93f 1cca e33f d540 af3f 7b0a f03f
00000090: 82cc bd3f 2f15 f83f df07 0e40 2249 1840
000000a0: 92b4 893f 7008 e33f 92a0 ef3f c2eb e43f
000000b0: 925d c53f 48d2 883f 6ba4 0c40 7879 a93f
000000c0: f9d3 c63f 0fd8 aa3f e0b7 b63f af88 fa3f
000000d0: e498 783f aa1e af3f ec8a ba3f 65ab 663f
000000e0: 6d3c 0b40 afe1 8b3f 6f56 743f d4d1 e13f
000000f0: 2f96 923f 0487 b53f bddf c33f 26bb ab3f
1.2585821 1.3448994 1.3765626 1.1225728 1.6847047 1.6136547 1.6949538 1.401394
1.6026952 1.2079834 1.5576075 1.3254122 1.7100891 1.4592271 1.9478232 1.246603
1.103333 1.8694558 1.1877301 1.2904716 1.2526133 1.4050062 2.1306458 2.0797682
1.8209578 1.8901627 2.2621222 0.9455382 0.7512104 1.9683098 1.7672899 1.2898002
1.576156 1.7796054 1.369166 1.8753198 1.4828036 1.9381465 2.2192304 2.3794637
1.0758231 1.773695 1.8720877 1.7884448 1.541918 1.0689173 2.1975353 1.3240194
1.5533439 1.3347186 1.4274864 1.9572963 0.9710829 1.3681233 1.4573646 0.9010528
2.175563 1.0928248 0.9544439 1.764216 1.1452082 1.4181828 1.5302655 1.3416488

bn2.bias f4 [64]
00000000: 0983 d4be 4e51 46bf 94dc 69be a8ee 18bf
00000010: 5dfc 47bf 7096 66bf 5ff2 9dbe 9bbe 57bd
00000020: 1a73 7fbf e75b 38bf 3ec1 e6be 42a8 84bf
00000030: 1514 57bf 2796 1abf 9983 8bbe f9f9 bfbe
00000040: 4763 5cbf 58ff 84bf d240 71bf d9ee 74bf
00000050: aae1 c6bd dd23 3fbd 9521 25bf 8ae4 71bf
00000060: 18bb 6dbf 3698 1dbf 8b3a 1abf ae47 b3be
00000070: 7714 3ebf 7002 53bf 8fed 8bbe daba e3be
00000080: 5c30 29bf 1e5f 02bf 3989 89bf 33a2 fabd
00000090: 52e9 74be 473d 09bf e149 11bf 4707 46bf
000000a0: 71f0 4cbf 6fd0 87be f981 4ebf ed5f 8bbe
000000b0: 47de 0cbf 97a6 4fbf 6f1d e6be 467e 43bf
000000c0: d1a5 2dbf 7c64 99bf 6dc7 50bf 4772 28bf
000000d0: 2332 23bf 957e b0be 738e 55bf df97 4ebf
000000e0: 9093 29bf f8d7 4bbf 7f69 863d 6bed 98be
000000f0: 5769 96bd cbbc 69bf b08c 27bf 4797 a8be
-0.41506222 -0.7746781 -0.2283805 -0.5973916 -0.7811945 -0.900733 -0.30848977 -0.05267201
-0.99785006 -0.7201523 -0.45069307 -1.0363848 -0.8401502 -0.60385364 -0.2724884 -0.37495402
-0.86088985 -1.0390425 -0.9423953 -0.9567695 -0.09711011 -0.04666506 -0.6450437 -0.9448935
-0.9286361 -0.6156038 -0.6024558 -0.35015625 -0.74249977 -0.82425594 -0.2732968 -0.44478494
-0.66089416 -0.5092639 -1.0745002 -0.12237968 -0.2391713 -0.53609127 -0.56753355 -0.77354854
-0.80054384 -0.2652621 -0.8066707 -0.27221623 -0.5502667 -0.8111357 -0.4494433 -0.7636455
-0.6783114 -1.198379 -0.815543 -0.65799373 -0.6374838 -0.34471574 -0.83420485 -0.80700487
-0.6624079 -0.7962642 0.065630905 -0.29868636 -0.07344311 -0.913037 -0.6544905 -0.32927915

bn2.running_mean f4 [64]
00000000: f951 3040 32b1 d53f 5091 2dc0 1a13 53bb
00000010: 4631 1c40 b7d7 823f 35ff 88be fc9a f2bf
00000020: 4817 163e 7dee e13e 2d73 adbe 8534 273f
00000030: 2628 a33e dfdf 993e 2572 f83d 3d85 973e
00000040: 3623 793f 2cf3 cbbe 7918 323f cb73 b7bc
00000050: 0855 c53f 05b9 aabf 4812 80bd b49a d33f
00000060: 91d1 5e3f 33e6 943e c77e 683e 7ef2 68bf
00000070: b701 4c3f a657 b13f 0bae f7be 6f05 07c0
00000080: b36a adbd ca20 92bd 0bc9 253f 4841 7f3f
00000090: ae02 f9be a389 0d40 de85 bd3e c473 30be
000000a0: 16c9 e93f 0909 7b3e a8b4 5c3e bbc7 8b3e
000000b0: 52a4 0e40 fb19 963f b54e 14c0 94f8 05bf
000000c0: b69a 3e40 a27c b93f 36f0 4a3f e93a 54bf
000000d0: 4efc b03f 2aa2 0c3f 0aee e43e 3288 9c3f
000000e0: fb0a 433f fb95 a83f bdfa ef3f f8dc 68bf
000000f0: feff 8abf cf98 9c3f e4ec a53e 8dd9 21be
2.7550032 1.6694701 -2.7119942 -0.003220743 2.4405074 1.0222081 -0.26757208 -1.8953547
0.14657319 0.44127265 -0.33876935 0.65314513 0.31866568 0.30053613 0.12131146 0.2959384
0.9731935 -0.39833963 0.6956859 -0.022394082 1.5416574 -1.3337713 -0.06253487 1.6531587
0.8703852 0.29081878 0.22704612 -0.90995014 0.79690117 1.3854873 -0.48374972 -2.1097066
-0.08467617 -0.0713516 0.6475989 0.99708986 -0.48634857 2.2115257 0.37016195 -0.17231661
1.8264492 0.24515165 0.2155329 0.2730082 2.2287793 1.1726679 -2.317304 -0.52332425
2.9781928 1.449116 0.7927278 -0.8290239 1.3826997 0.5493494 0.4471286 1.2229064
0.7618863 1.317077 1.8748394 -0.9096217 -1.0859373 1.2234133 0.32407296 -0.15805645

bn2.running_var f4 [64]
00000000: 3c65 b740 6072 bb40 22c2 ee40 24d2 0b41
00000010: 6afa 8840 274a 3d40 461e b640 206f 6e41
00000020: 53d0 1340 67ef 7d40 2468 0141 1a1f 0440
00000030: 4b3d 8940 c820 2140 3096 c840 1e32 ba40
00000040: 3254 9940 35fe 1540 c41b 7740 9faf 5340
00000050: 2c8e bf40 308c 7041 88a0 3f40 14d3 ac40
00000060: d08d 8a40 a1bf 4440 d9f0 4d40 5a8b 0a41
00000070: 977b e340 b1c2 2c41 7c34 ac40 4e0b 8b40
00000080: 50fd 7d40 3e2e 5440 2a8c 8d40 9564 ca40
00000090: d45f b440 5337 8640 9147 3c40 cacd 1a40
000000a0: f35e 7140 8bc2 1941 1255 6240 a0cb c940
000000b0: 1050 0640 1639 8840 bfcb 5540 6ea8 8a40
000000c0: 8adc 9d40 11b1 0741 12bf 2b40 7070 cf3f
000000d0: 4f7f 1e40 1a4d ce40 a7d7 8940 288e 2140
000000e0: 9292 b440 08aa a440 2882 4041 d6b0 d640
000000f0: 3b9b 9541 5957 5c40 6338 7e40 bbb3 6340
5.7311077 5.857712 7.461198 8.738804 4.280568 2.957651 5.6911955 14.90213
2.30959 3.967737 8.087925 2.0643983 4.288732 2.5176258 6.2683334 5.818618
4.7915277 2.3436406 3.8610697 3.307594 5.986105 15.034225 2.994173 5.4007664
4.329811 3.074196 3.2178252 8.659021 7.1088367 10.797532 5.381407 4.34513
3.968586 3.3153224 4.42336 6.324778 5.636698 4.1942534 2.941868 2.4188104
3.7714202 9.609996 3.5364423 6.3061066 2.0986366 4.2569685 3.3405607 4.3330603
4.9331713 8.480729 2.683537 1.6206188 2.4765203 6.446912 4.3075747 2.5243015
5.642892 5.145756 12.031776 6.7090864 18.700796 3.4428313 3.9721916 3.5578449

fc3.weight f4 [2, 64]
00000000: f14d 42be d688 c7be 24d1 433e 4140 07be
00000010: a1b6 8b3d b2d8 45bf 13fa 833e 81ab 863e
00000020: fb94 a53f db58 b53c a00c 26be 11cc 883f
00000030: 6978 5fbf 5648 ba3e 6fd9 113e baba cabe
00000040: 912b 083e 837d 9b3f e14a 6ebf 3127 7abf
00000050: 7df6 ea3d 10dc f6be ca87 bd3f 721d 89bf
00000060: 7ede 78bf 8208 973f f5b5 b43f 37de 823e
00000070: 0cd5 b5be 7e1b 6e3d 6c45 e83e 7beb 84be
00000080: f655 793f 4c97 6c3f 67f6 7abf 6e82 33bd
00000090: 2ea0 db3e 4858 923d 184e 3e3f 2e17 65bf
000000a0: dfdc 2abe 5db0 5e3d 2432 c33f 0eff 943e
000000b0: 7cd7 a4bd 2091 60bf 76b6 0d3d a46e 40bf
000000c0: ce2f dfbe bc37 8abe 3fd2 693f c21a ebbd
000000d0: 4f88 25bf 5212 06bf 27e1 50bf 1f90 0d3d
000000e0: 2f2a 85bf 55d8 f63c 2c3e 80be 2f6e c93d
000000f0: 6c9d 86be 4ee5 8cbf fef7 fabd 78da db3e
00000100: 43e0 43bf a77e 1cbf 885f 973f 3047 14bf
00000110: b979 453f 3155 d33e 4da5 c5bf 8445 4a3f
00000120: 00d1 cd3e bb34 63bf 51da c33f 3be3 ef3e
00000130: 379d 4a3e 7fed 62bf 6834 f7bf e5f8 7b3d
00000140: d583 4f3f 9dc6 673e af92 c4bd 1ae7 083e
00000150: ab2d 5ebf cd8a 333e ff92 46bf 9bec 2e3e
00000160: ffbe cf3b 0874 0fbf 9d21 76bf 1c92 73be
00000170: 953b 50be 4b7a debf a6c2 9abf 0111 eb3e
00000180: 4e9e debe d21c 82bf 1487 c5be 1736 b2bf
00000190: f3ff 22bf 235a ed3f ab14 0ec0 86dc 8e3f
000001a0: f13a c53e 48a5 cd3f db88 503e c828 94bf
000001b0: e6db 383f 6a9a 403e 5105 be3f 5668 f43d
000001c0: 4859 a5bf 0bef c4bf b923 bc3e 2ea1 d53f
000001d0: 2d9b 0a3f dcc6 273e 5e3b 133e 66aa 553f
000001e0: 7009 b63e 4077 39bf 659f 823d a85f bcbf
000001f0: a8aa 973b 755d 263e 7ae4 5e3e 50dc 3bbf
-0.18975045 -0.38971585 0.1912275 -0.13208105 0.06821943 -0.77283776 0.2577673 0.26302722
1.293609 0.022137096 -0.16215754 1.0687276 -0.87293106 0.36383313 0.142431 -0.39595586
0.1329787 1.2147678 -0.93083006 -0.9771605 0.11472795 -0.4821477 1.4807065 -1.0712111
-0.97214496 1.1799471 1.4118029 0.2556016 -0.35514104 0.058131687 0.45365465 -0.25960907
0.9739679 0.9241836 -0.9803223 -0.04382556 0.42895645 0.071457446 0.7433791 -0.89488494
-0.16685818 0.054367412 1.5249677 0.2910084 -0.08048913 -0.87721443 0.034597836 -0.75168824
-0.4359116 -0.26995647 0.91336435 -0.11479713 -0.64661115 -0.52371705 -0.81593555 0.034561273
-1.0403498 0.030132452 -0.25047433 0.09835469 -0.26291978 -1.1007478 -0.12254332 0.42940116
-0.7651407 -0.61130756 1.1826029 -0.57921124 0.7713886 0.41275933 -1.5441071 0.7901232
0.40198517 -0.88752335 1.5301 0.4685305 0.19786535 -0.8864364 -1.9312868 0.06151666
0.81060535 0.22634359 -0.0959829 0.13369408 -0.86788434 0.17533417 -0.7756805 0.17082445
0.006339907 -0.56036425 -0.9614504 -0.23786205 -0.20335229 -1.7381071 -1.2090652 0.4591141
-0.43480152 -1.0165045 -0.3857962 -1.3922757 -0.636718 1.8543133 -2.2200115 1.1161048
0.3852153 1.6066065 0.20364706 -1.1574945 0.7221054 0.18808904 1.4845372 0.11933963
-1.2917871 -1.538545 0.36746004 1.6689813 0.5414303 0.16384453 0.14378116 0.8346313
0.35554075 -0.72447586 0.06378058 -1.4716692 0.004628498 0.16246589 0.21766844 -0.73383045

fc3.bias f4 [2]
00000000: 029a 053e f99a 40bd
0.1304703 -0.047022793
