DRL Nanodegree/Personal Exercises Solutios/4. Multi-Agent  Reinforcement Learning/p3_collab-compet/Actor2_solved.pth (torch_old, 51767 bytes, 14 tensors)

fc1.weight f4 [128, 24]
0.32540482 0.16621621 -0.088103145 0.32158855 0.21369849 0.29987696 -0.13966072 0.25395587
0.49808723 0.090300545 0.08071306 -0.2847402 0.36612767 -0.55274165 0.001715569 -0.35176405
0.35556537 0.34433195 -0.41552824 0.028188398 -0.06862447 -1.0954558 -0.40314198 0.11156927
0.24666704 -0.14471997 -0.12924398 -0.02859319 0.647964 -0.52726173 0.11274196 -0.07925641
0.3392536 0.13045998 -0.11786044 -0.04744284 0.47423774 0.5186338 -0.029264733 -0.23795615
0.026795734 0.10808747 0.0901224 0.43427727 1.6659884 0.23992766 0.122049324 0.2885555
0.12916777 0.3677983 -0.14411485 -0.22486956 -1.1073363 1.1107942 0.11674419 -0.061452623
0.28494072 0.58564585 0.091071784 0.066149674 -0.55557424 0.82333446 -0.0057357433 0.14088589
0.4242481 0.7234548 0.01088885 0.22080962 -0.48048043 0.8113261 0.025187857 0.40981683
0.3441632 -0.12733088 -0.09210252 0.41466588 0.37364367 -1.0838174 0.1834547 0.7439774
-0.3370669 -0.17315951 -0.07336494 -0.22784488 0.5650387 -0.66979975 -0.06490055 -0.30393633
-0.40438074 -0.07646876 -0.019887349 -0.26028088 0.2879184 0.2883267 -0.21106617 -0.31721398
0.51730824 -1.0051947 0.020519122 -0.07698639 -0.37799773 -0.75494516 0.06594161 -0.027647171
0.2662325 -1.1049658 -0.056841232 0.011184476 -0.665783 -0.7388666 0.32038027 0.16214192
-0.07054781 -1.388025 0.09479787 -0.06564998 -0.95293725 -0.5668532 0.14090917 -0.11991056
0.48904136 -0.13863835 -0.078915745 -0.61499006 -0.12555476 -0.32175094 -0.13464196 -0.6377784
0.43704027 -0.20354767 0.14260288 0.014580429 0.052461937 -0.18537594 -0.08918668 -0.12726712
-0.0027923204 -0.39258796 0.23527004 -0.23100775 0.5909294 -0.7714071 0.3284128 -0.3362535
-0.631366 0.90206736 0.21589284 0.61268973 0.20346889 -1.0330455 0.16188553 0.36009938
-0.68556845 0.7530286 -0.003605265 -0.25396216 0.051943507 -0.7255757 -0.123201385 -0.21450464
-0.44122547 0.67727643 0.1222838 -0.6477053 0.016211946 -0.47498813 0.0025112655 -0.29248682
-0.0044380445 -0.51513207 0.1348095 -0.13197878 0.4871009 0.6763968 0.12165711 -0.19213027
-0.4054994 -0.55844474 0.19950685 -0.44099143 0.40663278 0.55543476 0.0785192 -0.32151437
-0.22596459 -0.6839663 0.14683723 -0.53275466 0.40285498 -0.24311388 0.034451455 -0.55771345
0.21606721 -0.4002481 -0.104423545 0.065053254 0.06509585 0.86670345 -0.03514211 0.16795768
-0.024794705 -0.6413726 0.19493082 -0.16892096 -0.34111834 0.98279405 -0.10185254 -0.43128777
0.2086214 -0.6740124 0.12425369 -0.22917822 -1.0079519 1.0032448 -0.038114086 -0.12596287
-0.066208735 -1.4970818 0.082594186 0.1086073 -0.006602224 2.1786902 -0.094669804 0.14543287
-0.1985312 -1.0739243 0.16217841 -0.028089916 -0.14152086 0.8013063 -0.15825726 0.049733747
0.19755396 -0.90271074 0.099393755 0.82679945 -0.05621234 0.041166775 -0.18242858 0.58420897
0.88687706 -1.1197475 -0.079371475 0.06974495 -0.19260752 -0.73722106 -0.17166902 0.25493002
0.85028255 -0.6881291 0.0014296379 0.18632594 -0.23554015 -0.1733574 0.0044642654 0.14174081
00000000: 769b a63e 9534 2a3e 6c6f b4bd 41a7 a43e
00000010: c7d3 5a3e 7989 993e 3803 0fbe 8106 823e
00000020: 4a05 ff3e 7eef b83d e44c a53d 78c9 91be
00000030: 1675 bb3e 7a80 0dbf f1dc e03a 6b1a b4be
00000040: aa0c b63e 474c b03e 1ec0 d4be 5beb e63c
00000050: fc8a 8cbd e537 8cbf a068 cebe 6e7e e43d
00000060: 4996 7c3e 7931 14be 8958 04be 443c eabc
00000070: f8e0 253f a0fa 06bf 42e5 e63d 2f51 a2bd
00000080: a6b2 ad3e 4d97 053e d060 f1bd 6c53 42bd
00000090: 4acf f23e 2fc5 043f 98bc efbc c7aa 73be
000000a0: ba82 db3c f75c dd3d 1892 b83d 9759 de3e
000000b0: 1c3f d53f 99af 753e fff4 f93d 8cbd 933e
000000c0: 8e44 043e 0f50 bc3e d892 13be 3544 66be
000000d0: 32bd 8dbf 812e 8e3f 9417 ef3d bfb5 7bbd
000000e0: c0e3 913e e3ec 153f d883 ba3d 7b79 873d
000000f0: 1d3a 0ebf 0cc6 523f e7f2 bbbb 6444 103e
00000100: 0c37 d93e 5534 393f 2667 323c eb1b 623e
00000110: 8801 f6be 11b3 4f3f c456 ce3c 83d3 d13e
00000120: 2936 b03e 0763 02be 3fa0 bcbd 164f d43e
00000130: 394e bf3e 87ba 8abf 8ddb 3b3e 4e75 3e3f
00000140: 0894 acbe ba50 31be 5c40 96bd 2b50 69be
00000150: 60a6 103f ff77 2bbf 94ea 84bd 8b9d 9bbe
00000160: fe0a cfbe a79b 9cbd cbea a2bc 8943 85be
00000170: 0a6a 933e 8f9f 933e bb21 58be df69 a2be
00000180: 506e 043f 38aa 80bf b817 a83c 0aab 9dbd
00000190: eb88 c1be 1644 41bf 650c 873d 527c e2bc
000001a0: a04f 883e 856f 8dbf 5ad2 68bd 183f 373c
000001b0: c170 2abf 5d26 3dbf e208 a43e 8808 263e
000001c0: 5f7b 90bd ceaa b1bf 6325 c23d 7f73 86bd
000001d0: b2f3 73bf 4b1d 11bf 7e4a 103e ab93 f5bd
000001e0: a163 fa3e 36f7 0dbe 949e a1bd fd6f 1dbf
000001f0: 6d91 00be 8abc a4be 95df 09be 7245 23bf
00000200: bec3 df3e cd6e 50be 7d06 123e c0e2 6e3c
00000210: 54e2 563d 31d3 3dbe 82a7 b6bd 5052 02be
00000220: 5dff 36bb 4a01 c9be a1ea 703e 4c8d 6cbe
00000230: 2647 173f f07a 45bf b925 a83e 6b29 acbe
00000240: 34a1 21bf e3ed 663f 0313 5d3e 3cd9 1c3f
00000250: 265a 503e d63a 84bf 52c5 253e f25e b83e
00000260: 6a81 2fbf 7bc6 403f 4f46 6cbb 5407 82be
00000270: b7c2 543d 54bf 39bf 0251 fcbd 1ba7 5bbe
00000280: 4ee8 e1be fd61 2d3f ee6f fa3d 04d0 25bf
00000290: eace 843c a531 f3be 0b94 243b d5c0 95be
000002a0: 046d 91bb b2df 03bf 800b 0a3e 7225 07be
000002b0: 4a65 f93e 5728 2d3f 5d27 f93d ccbd 44be
000002c0: 9e9d cfbe 3cf6 0ebf 864b 4c3e a1c9 e1be
000002d0: 2c32 d03e f930 0e3f adce a03d 889d a4be
000002e0: 4363 67be 6a18 2fbf 805c 163e 9c62 08bf
000002f0: 0243 ce3e d8f2 78be f81c 0d3d 4fc6 0ebf
00000300: b940 5d3e 52ed ccbe 03dc d5bd a43a 853d
00000310: f950 853d 47e0 5d3f 2cf1 0fbd 19fd 2b3e
00000320: 441e cbbc ff30 24bf f29b 473e 9ef9 2cbe
00000330: 10a7 aebe 6498 7b3f 1198 d0bd c0d1 dcbe
00000340: d9a0 553e 148c 2cbf b878 fe3d b2ad 6abe
00000350: 9104 81bf 536a 803f 841d 1cbd 69fc 00be
00000360: 7298 87bd 60a0 bfbf 2427 a93d 816d de3d
00000370: 7857 d8bb a96f 0b40 3ee2 c1bd 5bec 143e
00000380: c34b 4bbe 5a76 89bf 1912 263e d31c e6bc
00000390: d8ea 10be 6922 4d3f 310e 22be 9db5 4b3d
000003a0: 964b 4a3e 0d18 67bf f48e cb3d 21a9 533f
000003b0: e93e 66bd 7e9e 283d 8fce 3abe b88e 153f
000003c0: 600a 633f e353 8fbf 838d a2bd 71d6 8e3d
000003d0: e83a 45be 85ba 3cbf 01ca 2fbe 3086 823e
000003e0: 1eac 593f 3b29 30bf b062 bb3a 3acc 3e3e
000003f0: 7031 71be 9a84 31be f948 923b 8124 113e

fc1.bias f4 [128]
-0.051327784 0.01837014 -0.054631703 -0.19986127 -0.021100128 0.09960865 -0.023750236 -0.10050922
0.006594215 0.03727565 -0.056959912 -0.15829459 -0.10942754 -0.033278942 0.07351453 0.18154526
0.003758599 0.07308004 0.11746654 -0.088988304 -0.06779912 0.13540794 0.14613123 0.04839625
-0.1577404 0.1158455 -0.16872156 0.10197911 0.024191363 0.065935284 -0.19897306 -0.07178013
0.08669028 0.15712197 -0.058430906 0.18202943 -0.04555303 -0.123110645 -0.088410266 0.012700917
-0.0362914 0.09880267 -0.113010935 -0.058068655 -0.20229232 0.16661288 -0.038420264 -0.16091913
-0.009851828 -0.00035875055 0.056693297 -0.022400293 0.1284022 -0.07042518 -0.061210256 -0.048473533
0.036442395 0.1635464 -0.009407606 0.1570619 0.16036768 -0.106257945 -0.017545188 -0.09635636
0.084761485 -0.07172824 0.062265962 0.012201728 -0.13400252 -0.13722017 -0.19933304 -0.114182785
0.057017863 0.012433444 0.1535184 -0.17947614 -0.0059513017 -0.18303157 0.0011820013 0.07437241
-0.18310796 0.18027283 -0.06338731 0.18085644 -0.034278404 0.115800306 0.18555243 -0.07433054
-0.049609296 0.10706171 -0.17476545 0.12084103 -0.12813847 0.18955475 -0.13377693 -0.0839847
0.15233873 -0.08884001 0.17496018 0.14044127 0.18654324 -0.19787806 0.002291031 -0.067145266
0.04862711 -0.15411419 0.0837018 -0.009671251 -0.09647329 -0.18361111 0.10676908 -0.07387157
0.15061988 0.036341432 0.062060084 -0.030954028 -0.02827832 -0.06936344 -0.17675208 0.12833726
-0.12853797 0.1190159 -0.068852924 0.12788066 0.17496835 -0.1248484 0.16854686 0.0049672797
00000000: 153d 52bd fa7c 963c 7ec5 5fbd 6fa8 4cbe
00000010: 2dda acbc 9fff cb3d db8f c2bc c7d7 cdbd
00000020: 4914 d83b 5aae 183d cc4e 69bd fa17 22be
00000030: 8c1b e0bd 804f 08bd c98e 963d 00e7 393e
00000040: d452 763b fdaa 953d 4c92 f03d 803f b6bd
00000050: 44da 8abd 61a8 0a3e 6da3 153e 253b 463d
00000060: b386 21be 6840 ed3d 58c5 2cbe 6cda d03d
00000070: f72c c63c 1409 873d 98bf 4bbe 7601 93bd
00000080: ac8a b13d 95e4 203e 3f55 6fbd ec65 3a3e
00000090: d095 3abd 6f21 fcbd 7110 b5bd 8217 503c
000000a0: 4ba6 14bd 0e59 ca3d 4772 e7bd 66d9 6dbd
000000b0: b825 4fbe 919c 2a3e 915e 1dbd fcc7 24be
000000c0: 9069 21bc af16 bcb9 3b37 683d d280 b7bc
000000d0: de7b 033e 143b 90bd 9bb7 7abd 2f8c 46bd
000000e0: 9f44 153d b578 273e 5c22 1abc d6d4 203e
000000f0: 6d37 243e c49d d9bd edba 8fbc 7c56 c5bd
00000100: 6e97 ad3d 41e6 92bd 980a 7f3d c2e9 473c
00000110: f537 09be 7283 0cbe f61d 4cbe aad8 e9bd
00000120: 908b 693d a5b5 4b3c ed33 1d3e 98c8 37be
00000130: 2303 c3bb a16c 3bbe 62ed 9a3a 9050 983d
00000140: a780 3bbe 7199 383e 35d1 81bd 6e32 393e
00000150: 8367 0cbd b628 ed3d 7501 3e3e 9c3a 98bd
00000160: 1e33 4bbd 2b43 db3d b7f5 32be 807b f73d
00000170: bb36 03be a41a 423e d2fc 08be 2c00 acbd
00000180: affe 1b3e c0f1 b5bd c328 333e d6cf 0f3e
00000190: 3105 3f3e 8ca0 4abe 1f25 163b 7583 89bd
000001a0: 382d 473d 1cd0 1dbe d96b ab3d 2b74 1ebc
000001b0: ca93 c5bd 8d04 3cbe bfa9 da3d fa49 97bd
000001c0: 193c 1a3e c1da 143d b732 7e3d 4d93 fdbc
000001d0: efa7 e7bc 6b0e 8ebd 7ffe 34be d86a 033e
000001e0: 759f 03be 9cbe f33d c302 8dbd 26f3 023e
000001f0: e72a 333e 85b0 ffbd 8c97 2c3e 90c4 a23b

bn1.weight f4 [128]
0.64373595 0.565184 0.622881 0.79195094 1.099104 0.6729122 0.51106226 1.0347599
1.1559287 0.918149 0.79260695 0.73043185 0.87886894 0.6759123 0.6595212 0.90428674
0.78295106 0.6399113 0.90753984 0.886709 1.0297916 1.034923 0.71248496 0.808905
0.77888197 0.76094055 0.9196563 0.7102861 0.64189017 0.93825626 1.0719814 0.8508197
0.8964365 1.0732338 0.6636669 0.534534 0.7553659 1.006962 0.78608394 0.66556036
0.88812083 0.65235525 1.6275157 0.7871139 0.5252797 0.8274113 0.9292755 1.0173033
1.0567553 0.8308078 0.6504276 0.6454904 0.53188455 0.61649954 1.8561127 0.24399817
0.62871367 0.5345535 1.1061525 0.6249222 0.8011793 1.0517638 0.9291399 0.5503591
2.0696664 1.103005 0.69511676 0.7175955 0.8983815 0.7636788 1.6966811 0.7248792
0.67504346 0.5637713 0.64435273 0.9988299 0.79924524 0.6384223 1.3676963 0.71168864
0.69699025 0.57623196 0.59022325 0.7292346 0.91322213 0.4913577 1.2424392 0.6848158
0.77542883 1.4899979 0.92183006 1.3374511 1.003822 0.9003294 0.42855018 0.6531471
0.8822117 0.91615736 0.820625 0.49783438 0.83998895 0.7751135 0.791962 0.49645522
0.6336145 0.83241624 0.45171893 0.6625808 0.6511319 0.591253 0.94846207 0.8629638
0.84583586 0.5653361 0.88883597 0.7550991 0.7968746 1.0777531 0.647444 0.6009313
0.71159077 0.62167007 0.84565496 0.67285544 0.9413407 0.5001477 0.69434154 0.562543
00000000: e1cb 243f e6af 103f 2175 1f3f 4cbd 4a3f
00000010: 71af 8c3f f943 2c3f fad4 023f 0373 843f
00000020: 79f5 933f d00b 6b3f 4ae8 4a3f 95fd 3a3f
00000030: 8efd 603f 9708 2d3f 62d6 283f 567f 673f
00000040: 7b6f 483f 3ad1 233f 8854 683f 5cff 623f
00000050: 36d0 833f 5b78 843f 6a65 363f 6614 4f3f
00000060: cf64 473f 00cd 423f 986e 6b3f 4fd5 353f
00000070: ea52 243f 9031 703f b036 893f 52cf 593f
00000080: dd7c 653f ba5f 893f 13e6 293f 38d7 083f
00000090: a95f 413f 21e4 803f cc3c 493f 2a62 2a3f
000000a0: e35b 633f c100 273f 6f52 d03f 4c80 493f
000000b0: bb78 063f 3ad1 533f 00e5 6d3f ff36 823f
000000c0: c243 873f d2af 543f 6c82 263f dc3e 253f
000000d0: 9629 083f ead2 1d3f 1a95 ed3f a8da 793e
000000e0: 61f3 203f 80d8 083f 6896 8d3f e7fa 1f3f
000000f0: 161a 4d3f 32a0 863f 1ddc 6d3f 55e4 0c3f
00000100: 6a75 0440 452f 8d3f 2cf3 313f 57b4 373f
00000110: 54fc 653f 7480 433f d92c d93f af91 393f
00000120: a6cf 2c3f 5153 103f 4df4 243f 51b3 7f3f
00000130: 569b 4c3f a56f 233f ac10 af3f 3a31 363f
00000140: f46d 323f f083 133f df18 173f 1eaf 3a3f
00000150: edc8 693f 3d93 fb3e 3f08 9f3f 1750 2f3f
00000160: 8182 463f 40b8 be3f 0efd 6b3f 9931 ab3f
00000170: 3d7d 803f fd7b 663f ee6a db3e a634 273f
00000180: a0d8 613f 4a89 6a3f 7b14 523f 26e4 fe3e
00000190: 8409 573f d76d 463f 06be 4a3f 612f fe3e
000001a0: 8f34 223f 3b19 553f b447 e73e e59e 293f
000001b0: 95b0 263f 5b5c 173f 69ce 723f 32eb 5c3f
000001c0: b388 583f deb9 103f c18a 633f 2d4e 413f
000001d0: f9ff 4b3f d0f3 893f e4be 253f a2d6 193f
000001e0: d02a 363f c525 1f3f d87c 583f 4140 2c3f
000001f0: b4fb 703f ae09 003f 5ec0 313f d102 103f

bn1.bias f4 [128]
-0.73726034 -0.7754156 -0.55494374 -0.65847373 -0.47870553 -0.6505558 -0.40183124 -0.3496462
-0.4405929 -0.4020367 -0.4644826 -0.33111537 -0.2933724 -0.6100011 -0.5990984 -0.46369338
-0.30979905 -0.07830848 -0.68096024 -0.3716293 -0.7732267 -0.5861835 -0.87953293 -0.40444842
-0.416185 -0.17399266 -0.70397127 -0.21883473 -0.75573736 -0.58466893 -0.45782843 -0.787855
-0.6921832 -0.3638105 -0.5573327 -0.5534672 -0.6571001 -0.57094127 -0.5786809 -0.26652744
-0.35248232 -0.63540375 -0.49887365 -0.6007129 -0.51342064 -0.80060107 -0.34910557 -0.49890935
-0.22175208 -0.7757047 -0.30977288 -0.43980998 -0.6343224 -0.8020794 -0.09343244 -0.16174507
-0.69943815 -0.93244547 -0.84722435 -0.7531664 -0.2665923 -0.20867999 -0.9732636 -0.37824643
0.5810571 -0.31037354 -0.58268845 -0.59426814 -0.47252563 -0.38700417 -0.2659655 -0.6264197
-0.33556575 -0.54106325 -0.81051785 -0.60531706 -0.57580787 -0.2992422 -0.4601182 -0.59136426
-0.62029374 -0.74188286 -0.6539953 -0.5897253 -0.2858116 -0.82336116 -0.5138232 -0.7615295
-0.3818939 0.64528996 -0.3967603 -0.20689665 -0.42101952 -0.5301715 -0.5338886 -0.7341412
-0.8552895 -0.287907 -0.5255953 -0.6497773 -0.6285348 -0.5106963 -0.40158224 -0.8502921
-0.33313814 -0.69702333 -0.6090917 -0.36214072 -0.7462338 -0.9178048 -0.5290715 -0.3898851
0.2414823 -0.40559006 -0.5522244 -0.7591944 -0.5226811 -0.4974129 -0.7557733 -0.45683512
-0.8218959 -0.80915827 -0.6249691 -0.70315295 -0.5588915 -0.66238105 -0.26471815 -0.46084532
00000000: 18bd 3cbf a381 46bf cb10 0ebf bc91 28bf
00000010: e418 f5be d38a 26bf d3bc cdbe d404 b3be
00000020: 6595 e1be c1d7 cdbe aad0 edbe f487 a9be
00000030: e834 96be 0829 1cbf 835e 19bf 3869 edbe
00000040: fb9d 9ebe 3260 a0bd 6953 2ebf 3246 bebe
00000050: 2ff2 45bf 1f10 16bf 1229 61bf dd13 cfbe
00000060: 3316 d5be 222b 32be 7637 34bf 3616 60be
00000070: 0178 41bf ddac 15bf 7d68 eabe deb0 49bf
00000080: eb32 31bf 5f45 babe 5bad 0ebf 07b0 0dbf
00000090: b637 28bf 3529 12bf 6e24 14bf 4976 88be
000000a0: 9078 b4be d2a9 22bf 5e6c ffbe 52c8 19bf
000000b0: 896f 03bf 31f4 4cbf f7bd b2be 0c71 ffbe
000000c0: fa12 63be 9594 46bf 8d9a 9ebe c62e e1be
000000d0: f462 22bf 1355 4dbf 8259 bfbd 80a0 25be
000000e0: 610e 33bf bfb4 6ebf b2e3 58bf 83cf 40bf
000000f0: c97e 88be 35b0 55be ce27 79bf 84a9 c1be
00000100: 28c0 143f 48e9 9ebe 122b 15bf f521 18bf
00000110: e1ee f1be 6925 c6be a12c 88be 0b5d 20bf
00000120: 46cf abbe 1f83 0abf 197e 4fbf 0ff6 1abf
00000130: 2568 13bf 4636 99be 9d94 ebbe a663 17bf
00000140: 92cb 1ebf 09ec 3dbf 3c6c 27bf 3df8 16bf
00000150: e655 92be ccc7 52bf eb89 03bf 99f3 42bf
00000160: 9987 c3be b931 253f 2b24 cbbe b7dc 53be
00000170: df8f d7be 52b9 07bf ecac 08bf adf0 3bbf
00000180: 41f4 5abf 8c68 93be 6a8d 06bf ce57 26bf
00000190: a8e7 20bf febc 02bf 309c cdbe beac 59bf
000001a0: 1591 aabe 1f70 32bf 6fed 1bbf 826a b9be
000001b0: 2e09 3fbf 41f5 6abf 3b71 07bf 059f c7be
000001c0: 2347 773e 80a9 cfbe 945e 0dbf 905a 42bf
000001d0: 6ece 05bf e7ac febe 5c7a 41bf 4be6 e9be
000001e0: c567 52bf ff24 4fbf fafd 1fbf d501 34bf
000001f0: 8313 0fbf ce91 29bf 2389 87be ebf3 ebbe

bn1.running_mean f4 [128]
-17.925991 -0.0927782 3.8944526 -4.068972 -7.619347 -5.951255 4.0094185 13.150683
7.85247 11.094729 -20.166473 6.1732116 -10.086919 7.9027843 14.979002 7.7640867
-9.348313 14.974744 1.6749414 -13.674307 -17.518274 1.9490658 21.09346 -4.072268
3.968394 8.435717 -3.436228 21.230124 -7.1101475 5.9244075 3.0834916 10.944505
4.249115 12.531189 9.465879 3.503165 2.8446772 6.21907 14.685495 -6.474324
2.5569448 9.954111 -17.220432 3.3865077 -7.554976 4.886278 2.134604 5.152882
13.107477 6.5859365 -4.9281826 -6.615298 -2.5243797 1.7289832 0.6486671 6.785135
-3.3242908 -22.345081 -12.223215 11.973261 14.642865 17.80066 4.136015 11.6862755
0.3951335 -3.6161485 -8.062743 -7.9459925 -6.497598 -5.6079865 5.4022746 -1.634081
-2.0354285 -11.729845 -14.014852 -10.901049 6.8165283 1.8201569 4.7262053 -1.0938137
-4.3512383 8.897785 5.9727836 -4.7684617 5.7980876 9.782311 4.2053027 7.5260754
3.5321617 7.381877 -16.72556 2.9113162 3.7004108 -8.499871 8.396632 11.666935
19.050697 15.338797 0.31744584 2.807372 11.519752 -7.5600166 5.1407504 3.7558694
8.1813965 2.854015 0.2212507 -4.649344 13.747703 -2.2371247 -4.632903 -3.7974105
-0.81064147 -5.899856 -10.380685 5.816981 -6.8739758 2.5844088 -0.49099123 -5.851948
4.5579433 14.083265 1.0344949 -9.199122 14.571722 -2.7977045 2.624459 16.264801
00000000: 6e68 8fc1 7f02 bebd b63e 7940 0535 82c0
00000010: b1d1 f3c0 ae70 bec0 284d 8040 3369 5241
00000020: 6f47 fb40 0384 3141 f054 a1c1 f38a c540
00000030: 0564 21c1 9ce3 fc40 fea9 6f41 6673 f840
00000040: b192 15c1 8d98 6f41 7b64 d63f f6c9 5ac1
00000050: 6d25 8cc1 fd7a f93f 68bf a841 0550 82c0
00000060: 2bfa 7d40 b2f8 0641 29eb 5bc0 4bd7 a941
00000070: 5486 e3c0 bf94 bd40 ed57 4540 b11c 2f41
00000080: c0f8 8740 c07f 4841 3e74 1741 db33 6040
00000090: 310f 3640 9f02 c740 caf7 6a41 aa2d cfc0
000000a0: fca4 2340 0a44 1f41 72c3 89c1 8bbc 5840
000000b0: 5dc2 f1c0 645c 9c40 5a9d 0840 69e4 a440
000000c0: 3ab8 5141 febf d240 acb3 9dc0 85b0 d3c0
000000d0: 708f 21c0 524f dd3f 0c0f 263f d31f d940
000000e0: 2ec1 54c0 bac2 b2c1 4a92 43c1 7a92 3f41
000000f0: 2d49 6a41 c067 8e41 3c5a 8440 fcfa 3a41
00000100: f04e ca3e fa6e 67c0 ff00 01c1 9245 fec0
00000110: 53ec cfc0 a074 b3c0 6fdf ac40 9129 d1bf
00000120: 7644 02c0 72ad 3bc1 d53c 60c1 b26a 2ec1
00000130: 0021 da40 e7fa e83f 133d 9740 1602 8cbf
00000140: 583d 8bc0 545d 0e41 0b21 bf40 3d97 98c0
00000150: ef89 b940 5984 1c41 d791 8640 9cd5 f040
00000160: f00e 6240 5638 ec40 f2cd 85c1 0153 3a40
00000170: 88d3 6c40 79ff 07c1 9b58 0641 c4ab 3a41
00000180: d467 9841 b66b 7541 4388 a23e fcab 3340
00000190: e750 3841 a8eb f1c0 0781 a440 2a60 7040
000001a0: 00e7 0241 2fa8 3640 8b8f 623e 6dc7 94c0
000001b0: 97f6 5b41 0d2d 0fc0 be40 94c0 c608 73c0
000001c0: 3386 4fbf 9fcb bcc0 4917 26c1 b524 ba40
000001d0: 9cf7 dbc0 f466 2540 3463 fbbe 2843 bbc0
000001e0: acda 9140 0e55 6141 546a 843f 9b2f 13c1
000001f0: c625 6941 970d 33c0 23f7 2740 501e 8241

bn1.running_var f4 [128]
277.65002 301.3452 190.77823 107.77773 233.02676 204.66739 102.16056 215.12022
100.78993 96.750145 77.86231 204.2913 152.48146 461.43338 106.00579 114.79331
160.04475 51.100014 22.493988 83.14926 132.61829 143.36966 77.21975 40.363316
138.62943 130.32715 271.96826 94.6816 388.0691 140.24416 36.900898 180.58287
179.56003 82.002594 130.25835 220.36354 208.65202 286.17923 89.151344 141.69264
124.97554 58.33213 144.6289 304.11026 353.4631 363.05338 226.17235 276.02017
90.628456 68.46649 289.29547 173.06418 147.61531 136.14175 67.15998 331.16205
189.37048 91.92267 114.30692 223.75768 75.465614 58.67244 154.02818 467.6595
9.02096 118.53184 260.9215 568.17847 189.8825 155.16226 110.94582 129.99973
185.04424 282.85934 46.47857 153.64189 238.2967 223.27231 69.89832 131.49211
288.1151 128.935 116.18358 59.87324 69.02513 147.41309 96.002846 105.66877
517.8249 680.5152 96.4396 290.25293 288.49408 59.63942 65.24352 130.22629
180.99174 97.219536 84.91977 217.05272 73.10112 432.48135 102.665085 253.90208
190.15718 208.68999 82.715675 136.9237 92.03215 84.723976 219.86182 107.24695
578.429 264.3002 40.153454 175.42569 135.95306 196.20923 141.68974 364.2543
254.78647 112.21413 158.38153 176.75798 46.99755 119.83384 245.42075 55.852184
00000000: 34d3 8a43 30ac 9643 3ac7 3e43 338e d742
00000010: da06 6943 daaa 4c43 3552 cc42 c71e 5743
00000020: 7294 c942 1380 c142 81b9 9b42 934a 4c43
00000030: 417b 1843 79b7 e643 f702 d442 2d96 e542
00000040: 750b 2043 6a66 4c42 b0f3 b341 6c4c a642
00000050: 489e 0443 a25e 0f43 8370 9a42 0974 2142
00000060: 22a1 0a43 c053 0243 f0fb 8743 fb5c bd42
00000070: d808 c243 813e 0c43 859a 1342 3795 3443
00000080: 5e8f 3343 5401 a442 2342 0243 115d 5c43
00000090: eba6 5043 f116 8f43 7d4d b242 51b1 0d43
000000a0: 7af3 f942 1a54 6942 00a1 1043 1d0e 9843
000000b0: 47bb b043 d586 b543 1f2c 6243 9502 8a43
000000c0: c541 b542 d8ee 8842 d2a5 9043 6e10 2d43
000000d0: 859d 1343 4a24 0843 e951 8642 be94 a543
000000e0: d85e 3d43 68d8 b742 259d e442 f7c1 5f43
000000f0: 65ee 9642 94b0 6a42 3707 1a43 6ad4 e943
00000100: da55 1041 4d10 ed42 f475 8243 6c0b 0e44
00000110: ece1 3d43 8a29 1b43 43e4 dd42 eeff 0143
00000120: 530b 3943 ff6d 8d43 0eea 3942 53a4 1943
00000130: f54b 6e43 b645 5f43 f1cb 8b42 fb7d 0343
00000140: bc0e 9043 5cef 0043 fe5d e842 337e 6f42
00000150: de0c 8a42 c069 1343 7501 c042 6956 d342
00000160: cb74 0144 f920 2a44 13e1 c042 6020 9143
00000170: 3e3f 9043 c48e 6e42 af7c 8242 ee39 0243
00000180: e3fd 3443 6770 c242 ecd6 a942 7f0d 5943
00000190: c633 9242 9d3d d843 8654 cd42 efe6 7d43
000001a0: 3d28 3e43 a3b0 5043 6d6e a542 78ec 0843
000001b0: 7610 b842 ad72 a942 a0dc 5b43 707e d642
000001c0: 759b 1044 6d26 8443 239d 2042 fa6c 2f43
000001d0: fcf3 0743 9035 4443 93b0 0d43 8d20 b643
000001e0: 56c9 7e43 a26d e042 ac61 1e43 0bc2 3043
000001f0: 7efd 3b42 edaa ef42 b66b 7543 a368 5f42

fc2.weight f4 [64, 128]
0.17578728 0.16020057 -0.16516466 0.17967655 0.10471672 -0.11626668 0.23450989 -0.07956022
0.08142062 0.12785865 -0.31855175 0.025506502 0.035562105 0.11899149 0.16056755 -0.6775445
-0.24287099 -0.14047235 0.36613828 0.15072432 0.12243324 -0.493504 0.38558322 -0.0145683745
-0.099028006 0.4529353 0.10622945 0.38843435 -0.29217988 0.30960178 0.2779841 0.12799652
0.19458209 -0.06969901 0.044211574 -0.20273615 0.7326199 0.056913547 -0.021162737 0.17124385
0.15823326 0.12759846 -0.14814548 0.494641 -0.31454703 -0.322624 -0.3741716 0.80613685
0.42196336 0.5939885 0.12863506 0.012411523 -0.11282746 0.010492568 -0.59749234 0.0123683885
0.088318504 0.025450522 -0.06947292 0.13840336 0.29196113 0.07011328 0.5715557 -0.21960321
0.68362236 0.24198966 0.1219311 -0.06518277 -0.015177109 0.09679903 0.9066773 -0.10771568
0.38927132 0.06647059 -0.18070553 0.05564947 0.055573348 -0.033024248 0.25360093 -0.076375045
0.03759595 0.32379928 -0.29943302 0.31824744 0.15830085 -0.6381402 0.40557012 0.8271096
0.2801776 -0.098365225 0.052273452 0.31849685 -0.32202104 -0.13633789 0.1579217 0.3576255
0.06317884 -0.049697828 0.028954774 -0.2686108 -0.37075102 -0.4577593 -0.28485465 0.043076593
-0.00629328 0.48745793 -0.34219125 -0.32940593 -0.38792083 -0.29600996 0.04549587 0.30156118
0.11828878 -0.16915923 0.26287678 0.074176885 0.16175687 -0.31456286 0.24097192 -0.03931949
0.2473582 0.0029435856 0.3984932 0.15433751 -0.49781278 -0.08569832 0.20503227 0.12924117
-0.008267714 -0.061452676 -0.6697275 0.20822364 -1.3471318 0.1283721 0.054296672 0.51438653
-0.20662732 -0.3862572 -0.37105826 0.04295559 -0.10827929 -0.01849732 0.08201167 -0.14957954
0.35052472 -0.060780335 -0.47079 0.16157421 -0.4370545 0.05910685 0.05343088 0.12501296
0.046682183 0.5704145 -0.8667931 -0.18988806 -0.11355293 0.06834759 0.29725137 0.37105364
-0.22889094 -0.526722 -0.66944313 -0.43818024 0.15797405 0.16982442 0.05277348 0.3008317
0.08417845 -0.0378404 -0.24394011 -0.16854659 -0.5405666 0.054614503 0.3596133 -0.08015138
0.20527193 -0.54897887 -0.30399022 -0.18406057 0.11496402 -0.38978082 -1.1674283 -0.181488
-0.1799558 -0.68330204 -0.20225719 -0.5950956 0.13230821 0.09217353 0.4207371 0.27295646
0.7395633 0.28918105 -0.1687848 0.43631253 0.34116465 -0.12379586 0.5745667 0.1947565
0.08038983 -0.13799289 0.22044463 -0.7859531 0.57684445 -0.016696852 -0.16909881 0.17505631
0.6926703 0.23814875 -0.56308985 0.161076 0.34067506 -0.46606135 -0.250402 0.31551868
0.17541876 0.8717402 -1.1115223 -0.88710576 -0.076798975 -0.14165841 0.081394695 0.11781023
0.7346794 0.10887615 0.074259795 -0.11463151 -0.019312378 -0.20734724 -0.07503926 -0.10044493
0.1604935 0.17217119 -0.7902105 0.08292698 0.16515745 0.046737626 -1.4620697 -0.87924963
0.41927886 -0.3798488 0.66884935 -0.29156125 -0.43199506 -0.047165114 0.44924235 -0.32931894
-0.5267317 0.3592449 0.22078556 -0.037380025 -0.02850547 -0.15269338 -0.6932779 0.0009148053
00000000: 9501 343e 9e0b 243e ed20 29be 21fd 373e
00000010: b875 d63d 3a1d eebd 5c23 703e 78f0 a2bd
00000020: dbbf a63d 61ed 023e 3719 a3be 03f3 d03c
00000030: 92a9 113d cfb1 f33d d26b 243e 8e73 2dbf
00000040: 2cb3 78be fcd7 0fbe 7a76 bb3e 7a57 1a3e
00000050: 47be fa3d 8eac fcbe 2a6b c53e 31b0 6ebc
00000060: 32cf cabd 23e7 e73e d38e d93d dee0 c63e
00000070: 9a98 95be 2084 9e3e ef53 8e3e 8511 033e
00000080: 8740 473e 5bbe 8ebd 3217 353d 119a 4fbe
00000090: fa8c 3b3f 2e1e 693d 7a5d adbc 8c5a 2f3e
000000a0: e607 223e 2ca9 023e 73b3 17be 9641 fd3e
000000b0: 4f0c a1be f92e a5be 6c93 bfbe fc5e 4e3f
000000c0: 950b d83e a10f 183f e9b8 033e b359 4b3c
000000d0: 1512 e7bd 05e9 2b3c 42f5 18bf c8a4 4a3c
000000e0: 55e0 b43d 9d7d d03c d147 8ebd 9cb9 0d3e
000000f0: ee7b 953e 8d97 8f3d 7951 123f aadf 60be
00000100: e001 2f3f 23cc 773e 03b7 f93d 8b7e 85bd
00000110: 69a9 78bc 923e c63d 011c 683f 0a9a dcbd
00000120: 924e c73e bc21 883d df0a 39be b3f0 633d
00000130: e1a0 633d 6f44 07bd fbd7 813e 856a 9cbd
00000140: 36fe 193d 05c9 a53e 494f 99be 54f1 a23e
00000150: 9e19 223e 285d 23bf e3a6 cf3e 74bd 533f
00000160: 7073 8f3e b573 c9bd b01c 563d 0512 a33e
00000170: f1df a4be 299c 0bbe 3ab6 213e b11a b73e
00000180: e863 813d f38f 4bbd 9032 ed3c 5b87 89be
00000190: 14d3 bdbe 6d5f eabe 78d8 91be 1571 303d
000001a0: dc37 cebb 1694 f93e b133 afbe e5a7 a8be
000001b0: 8f9d c6be 9e8e 97be e159 3a3d 3a66 9a3e
000001c0: 6341 f23d 1438 2dbe c997 863e 0dea 973d
000001d0: 98a3 253e 620e a1be 58c1 763e 790d 21bd
000001e0: 784b 7d3e 2ce9 403b 4d07 cc3e a70a 1e3e
000001f0: 51e1 febe 9a82 afbd fbf3 513e cc57 043e
00000200: 4e75 07bc cdb5 7bbd 4373 2bbf 9438 553e
00000210: d16e acbf fa73 033e 3066 5e3d d6ae 033f
00000220: 1d96 53be 81c3 c5be 59fb bdbe 33f2 2f3d
00000230: 88c1 ddbd b187 97bc bcf5 a73d 612b 19be
00000240: fa77 b33e cdf4 78bd 630b f1be b673 253e
00000250: 9cc5 dfbe 061a 723d 57da 5a3d 6603 003e
00000260: d135 3f3d af06 123f 27e6 5dbf 0472 42be
00000270: 708e e8bd d2f9 8b3d 5531 983e befa bd3e
00000280: 6362 6abe 41d7 06bf a060 2bbf 2959 e0be
00000290: f3c3 213e 74e6 2d3e 0129 583d 9d06 9a3e
000002a0: c065 ac3d 89fe 1abd 70cb 79be 7a97 2cbe
000002b0: 9362 0abf 75b3 5f3d 3c1f b83e 6826 a4bd
000002c0: ce32 523e e189 0cbf 9ba4 9bbe 607a 3cbe
000002d0: 4272 eb3d 5a91 c7be 4a6e 95bf fed7 39be
000002e0: 5546 38be e2ec 2ebf 821c 4fbe 2f58 18bf
000002f0: ce7b 073e 7ac5 bc3d da6a d73e f3c0 8b3e
00000300: 0554 3d3f 8a0f 943e ecd5 2cbe 5b64 df3e
00000310: 22ad ae3e af88 fdbd ce16 133f 3f6e 473e
00000320: 6ca3 a43d 024e 0dbe 3dbc 613e 3934 49bf
00000330: 14ac 133f d6c7 88bc 3d28 2dbe f641 333e
00000340: d752 313f 44dd 733e a826 10bf 1bf1 243e
00000350: f66c ae3e 989f eebe b134 80be aa8b a13e
00000360: faa0 333e 5e2a 5f3f 5d46 8ebf 5d19 63bf
00000370: c848 9dbd e70e 11be 43b2 a63d 7d46 f13d
00000380: f313 3c3f 75fa de3d 8515 983d edc3 eabd
00000390: fe34 9ebc d652 54be 2fae 99bd 12b6 cdbd
000003a0: 6858 243e a54d 303e 3c4b 4abf 9fd5 a93d
000003b0: 091f 293e f46f 3f3d 1a25 bbbf 8116 61bf
000003c0: b8ab d63e 8b7b c2be b639 2b3f 8447 95be
000003d0: 752e ddbe 3530 41bd 1803 e63e 7e9c a8be
000003e0: e4d7 06bf f3ee b73e 9c15 623e cc1b 19bd
000003f0: 4e84 e9bc a75b 1cbe a97a 31bf 8bcf 6f3a

fc2.bias f4 [64]
0.032128442 0.0126336925 0.053173065 -0.026955983 0.075363174 0.016753871 0.05582819 0.06816574
-0.004748458 0.08325078 0.046696715 -0.054088593 0.0064880494 -0.04303626 0.016828198 -0.053358223
-0.03281295 -0.03630683 -0.085733585 0.08113872 -0.030482627 -0.027071603 -0.0016232867 0.001450367
-0.07429407 0.024539562 -0.055002846 -0.07042254 -0.05304798 -0.068951674 0.06934324 0.03378026
0.077612765 -0.0710537 -0.07007732 0.03503849 -0.041306023 -0.02717446 -0.05197709 -0.07469546
-0.052107416 -0.055586666 0.045265194 -0.002416662 0.05528256 0.07691873 0.0584127 -0.07157729
0.051682033 0.050151233 -0.040049713 -0.018637786 0.029690616 -0.008983655 -0.05421251 -0.01565015
-0.024451625 0.05401329 0.038424022 0.055285033 -0.0036957734 -0.08049229 0.08627154 0.002741286
00000000: 1d99 033d 8cfd 4e3c 00cc 593d cbd2 dcbc
00000010: 0258 9a3d 6a3f 893c 1aac 643d 7b9a 8b3d
00000020: f498 9bbb 637f aa3d 0e45 3f3d 008c 5dbd
00000030: b499 d43b ca46 30bd 4adb 893c 278e 5abd
00000040: df66 06bd 78b6 14bd 1795 afbd 0f2c a63d
00000050: b4b6 f9bc 44c5 ddbc 77c4 d4ba 3e1a be3a
00000060: 7d27 98bd 3107 c93c aa4a 61bd b139 90bd
00000070: d748 59bd 8936 8dbd d403 8e3d 2b5d 0a3d
00000080: 71f3 9e3d 9a84 91bd b384 8fbd 8584 0f3d
00000090: 8130 29bd f99c debc eee5 54bd eff9 98bd
000000a0: 966e 55bd d8ae 63bd ff67 393d dc60 1ebb
000000b0: f76f 623d 9187 9d3d 2842 6f3d 1d97 92bd
000000c0: 8ab0 533d 616b 4d3d 2b0b 24bd 45ae 98bc
000000d0: bc39 f33c 2e30 13bc f00d 5ebd be34 80bc
000000e0: c64e c8bc 0a3d 5d3d 8262 1d3d 8f72 623d
000000f0: ca34 72bb 24d9 a4bd 22af b03d 26a7 333b

bn2.weight f4 [64]
1.9498041 1.5584966 1.8655847 1.6349976 1.4490175 1.2308034 1.5381699 1.290701
1.111743 0.94827217 2.1922705 0.8184005 1.2190547 0.8508244 1.5657338 1.1737356
1.5865911 0.9976317 1.2516913 1.6364623 1.6445029 0.9093898 1.5365461 1.5079314
1.3692949 1.3512408 1.1476492 1.36718 1.4528836 1.5484097 1.5734005 1.245096
1.2683951 0.67140526 1.5222139 1.4878173 1.1242958 1.2400259 1.594386 1.5526031
1.2226752 1.4589785 0.83348227 1.7372775 0.98541397 1.1056955 1.128272 1.948187
1.7183567 1.5530462 0.8836079 0.86593467 1.0060439 1.2434616 0.81512886 1.3592626
1.4317417 1.1225401 1.6120356 2.4730358 1.302235 1.1264836 1.415843 0.95081115
00000000: 2e93 f93f d17c c73f 7bcb ee3f 9a47 d13f
00000010: 6879 b93f f78a 9d3f c0e2 c43f b135 a53f
00000020: 984d 8e3f f7c1 723f 294e 0c40 b282 513f
00000030: fc09 9c3f a1cf 593f f769 c83f f83c 963f
00000040: 6b15 cb3f cb64 7f3f 6c37 a03f 9977 d13f
00000050: 127f d23f c5cd 683f 8bad c43f e503 c13f
00000060: 0e45 af3f 75f5 ac3f 2be6 923f c1ff ae3f
00000070: 17f8 b93f 4a32 c63f 3065 c93f 4e5f 9f3f
00000080: c55a a23f 37e1 2b3f e8d7 c23f cc70 be3f
00000090: ede8 8f3f 2bb9 9e3f d714 cc3f b3bb c63f
000000a0: 9f80 9c3f cfbf ba3f 185f 553f 1c5f de3f
000000b0: 1744 7c3f 6e87 8d3f 386b 903f 315e f93f
000000c0: 1df3 db3f 38ca c63f 2134 623f e5ad 5d3f
000000d0: 0cc6 803f c029 9f3f 49ac 503f 51fc ad3f
000000e0: 5043 b73f 65af 8f3f 2f57 ce3f 3846 1e40
000000f0: a3af a63f 9d30 903f 583a b53f 5c68 733f

bn2.bias f4 [64]
-0.6763965 -0.45866114 -0.23606235 -0.16394807 -0.44161645 0.015988592 -0.5366138 -0.3116972
-0.48657596 -0.62979966 -0.3911406 -0.9772804 -0.64428115 -0.46240377 -0.8149037 -0.15763746
-1.0657458 -0.74279857 -0.60739845 -0.52613795 -0.70967275 -0.23555407 -0.67730725 -0.40153956
-0.6250527 -0.96169263 -0.45436943 -0.42771512 -1.082407 -0.84682375 -0.7145344 -0.74705285
-0.42856646 -0.5737931 -0.28503135 -0.6341493 -0.5581491 -0.61763775 -0.33283466 -0.29325846
-0.13809887 -0.30223462 -0.9434385 -0.5584317 -0.73983467 -0.3159033 -0.15209576 -0.85343397
-0.28657663 -0.7829467 -0.794636 -0.47567213 -0.38402852 -0.73756236 -0.4851489 -0.686729
-0.51306623 -0.2942518 -0.7580164 -0.38682023 -0.052876826 -0.26251468 -0.5190311 -0.6995463
00000000: 5228 2dbf a2d5 eabe 54ba 71be 01e2 27be
00000010: 8d1b e2be 82fa 823c 865f 09bf c796 9fbe
00000020: 7c20 f9be 8d3a 21bf 9543 c8be 0c2f 7abf
00000030: 9cef 24bf 30c0 ecbe 879d 50bf b76b 21be
00000040: 5c6a 88bf 0c28 3ebf 777e 1bbf fab0 06bf
00000050: 1dad 35bf 1635 71be 0264 2dbf 9896 cdbe
00000060: 7403 20bf 7d31 76bf 1ca3 e8be 7afd dabe
00000070: 508c 8abf 71c9 58bf baeb 36bf db3e 3fbf
00000080: 106d dbbe 1be4 12bf a1ef 91be 9c57 22bf
00000090: dce2 0ebf 821d 1ebf 4e69 aabe f925 96be
000000a0: ca69 0dbe 7fbe 9abe 2f85 71bf 61f5 0ebf
000000b0: ce65 3dbf 14be a1be febe 1bbe a67a 5abf
000000c0: 2cba 92be 326f 48bf 446d 4bbf 4c8b f3be
000000d0: 639f c4be e3d0 3cbf 7065 f8be 79cd 2fbf
000000e0: 4f58 03bf 2ca8 96be 5d0d 42bf 4d0d c6be
000000f0: 5f95 58bd 5368 86be 39df 04bf 7715 33bf

bn2.running_mean f4 [64]
1.8247589 0.0018038142 -2.6408393 -0.65157115 -0.2950588 1.272521 -1.9632854 1.894019
-0.0003337998 -1.3278432 -2.83644 0.2246934 2.152701 0.79379004 -1.6797161 1.0556918
-2.1109178 -2.615125 1.3646024 -2.0228097 0.74536014 1.5937407 -2.4447458 -1.3486284
-0.8332165 -0.91239035 -0.07091374 -2.3305457 1.0162086 -0.3124718 -1.1302748 -1.0526365
-2.4673865 -2.6471367 -1.1107153 -1.5602515 -0.7779691 1.9594854 -2.8645372 -2.8004668
-3.6740832 0.55661225 1.0091469 -0.8848232 3.118285 -1.08809 -2.4491765 2.5794694
1.8332759 1.2819126 -0.8527498 -0.08817853 -0.5603969 -0.23375106 0.50107217 0.29222763
0.17082311 0.45855093 0.05670704 -0.6691587 1.0608597 0.67236966 -1.134908 -2.0810783
00000000: b391 e93f f66d ec3a 8303 29c0 5ecd 26bf
00000010: f211 97be f8e1 a23f f04c fbbf 376f f23f
00000020: da01 afb9 c4f6 a9bf 3c88 35c0 0716 663e
00000030: dac5 0940 d335 4b3f f000 d7bf e920 873f
00000040: 4719 07c0 355e 27c0 4bab ae3f b775 01c0
00000050: eccf 3e3f b2ff cb3f b776 1cc0 db9f acbf
00000060: ad4d 55bf 6a92 69bf 393b 91bd a927 15c0
00000070: 2013 823f 4efc 9fbe d8ac 90bf cbbc 86bf
00000080: a9e9 1dc0 b06a 29c0 eb2b 8ebf 52b6 c7bf
00000090: fc28 47bf 6bd0 fa3f 9454 37c0 d93a 33c0
000000a0: 2e24 6bc0 247e 0e3f ba2b 813f c683 62bf
000000b0: fb91 4740 8846 8bbf 4fbf 1cc0 0716 2540
000000c0: c9a8 ea3f b615 a43f d04d 5abf f296 b4bd
000000d0: 2c76 0fbf 705c 6fbe 4446 003f dc9e 953e
000000e0: 41ec 2e3e 30c7 ea3e a445 683d fc4d 2bbf
000000f0: 40ca 873f 6b20 2c3f aa44 91bf 6330 05c0

bn2.running_var f4 [64]
2.67092 30.32793 7.4460087 4.1356163 2.4549196 12.348049 3.775448 2.4969883
5.6776085 3.2804036 5.281494 4.270789 3.2669423 1.6007369 2.7582636 4.623269
1.164107 4.2040944 2.5839677 3.8236272 2.648809 8.037393 3.0724769 5.66404
2.5599654 6.3602257 2.1838026 9.511652 2.720055 2.3155317 3.228703 5.099743
4.003554 3.127655 3.7532673 6.1605086 4.304189 3.266646 4.981865 8.516586
22.125906 2.812121 2.1370618 3.1295965 3.648365 5.411985 16.297047 2.892364
12.086846 3.9217684 2.9981134 3.5761547 3.8547816 2.9932559 3.454231 4.6604204
3.812622 5.2718534 4.3677735 1.7941685 12.092584 3.1453416 7.0052786 1.7229068
00000000: 5af0 2a40 9a9f f241 b445 ee40 f856 8440
00000010: 671d 1d40 9c91 4541 f1a0 7140 a8ce 1f40
00000020: f8ae b540 22f2 5140 0002 a940 4eaa 8840
00000030: 9515 5140 f2e4 cc3f 6487 3040 d2f1 9340
00000040: 7501 953f f187 8640 ba5f 2540 4fb6 7440
00000050: 1686 2940 2999 0041 76a3 4440 d13f b540
00000060: 79d6 2340 f886 cb40 6cc3 0b40 ba2f 1841
00000070: 6215 2e40 ac31 1440 12a3 4e40 1831 a340
00000080: 1d1d 8040 802b 4840 8835 7040 e322 c540
00000090: ebbb 8940 ba10 5140 706b 9f40 f043 0841
000000a0: db01 b141 caf9 3340 9fc5 0840 4f4b 4840
000000b0: d07e 6940 fb2e ad40 5a60 8241 7e1c 3940
000000c0: b963 4141 41fe 7a40 17e1 3f40 b8df 6440
000000d0: beb4 7640 8191 3f40 1f12 5d40 2a22 9540
000000e0: 0002 7440 06b3 a840 cdc4 8b40 50a7 e53f
000000f0: 397b 4141 474d 4940 3e2b e040 3688 dc3f

fc3.weight f4 [2, 64]
1.6470978 0.6164242 0.0666849 -0.07023968 -0.9449344 -0.31386337 0.15322718 0.6991925
0.3797526 0.07181928 0.18362665 -0.07641787 0.240229 0.36226854 0.04955347 -0.6418923
1.690407 0.24198939 -0.7250548 -0.1595441 0.11610392 -0.11392631 0.01766129 -0.13659257
-0.68798596 0.05222885 0.23854929 0.300053 -1.824736 -0.57545674 0.0024798778 -0.69830143
0.17517395 0.14545642 -0.22343978 0.12101401 0.0002664842 -0.020079985 0.17694344 0.2887757
-0.27926135 0.7263531 0.5338852 -0.20560218 -0.14624636 -0.20338093 -0.27933845 -0.104948394
0.20865408 -1.738803 0.2504461 -0.05721665 -0.33918545 -1.0269109 -0.47126937 0.02869266
-0.06311452 -0.30633423 -1.8878628 1.8272715 -0.3280567 -0.33509022 -0.09278039 0.21281645
0.00575236 -0.3671408 1.3432521 -0.9835381 -0.35629693 0.1758661 1.2926177 -0.031086301
-0.5798281 -0.40431303 1.6033903 0.7802333 0.74001086 -0.16188167 -1.4074937 -0.079432674
0.38516912 0.10200766 -0.17597403 1.0262955 -1.4881239 0.23121853 1.4359288 -0.8527644
0.021455472 1.2288693 -0.6056328 -0.4427437 -0.21181847 -1.2009965 -1.2998351 0.30512947
1.0640074 -0.14230172 -0.71522975 -0.6713916 0.8440529 0.654868 -0.9738593 0.03448387
0.22897188 0.88138026 0.54232526 -1.0260046 -0.035156652 -0.27766013 0.011741725 1.5615116
-1.0684599 0.003476274 -0.025129408 -0.30944833 -0.048377886 -0.03471429 0.48220652 1.3238461
0.75958353 -0.23380566 -0.18250078 0.3633131 0.32117894 -0.2713368 0.9485551 0.57034194
00000000: 1ad4 d23f facd 1d3f 1892 883d d2d9 8fbd
00000010: 39e7 71bf b3b2 a0be 96e7 1c3e 48fe 323f
00000020: ef6e c23e fd15 933d a008 3c3e f980 9cbd
00000030: 97fe 753e 437b b93e 94f8 4a3d 0e53 24bf
00000040: 425f d83f 11cc 773e 319d 39bf 875f 23be
00000050: e4c7 ed3d 3252 e9bd 69ae 903c ecde 0bbe
00000060: d91f 30bf ebed 553d 4446 743e 8ca0 993e
00000070: f390 e9bf 2251 13bf 7285 223b e2c3 32bf
00000080: cd60 333e 87f2 143e 66cd 64be 31d6 f73d
00000090: e7b6 8b39 c87e a4bc a930 353e 69da 933e
000000a0: 58fb 8ebe 47f2 393f b3ac 083f 6189 52be
000000b0: 9bc1 15be 1743 50be 7305 8fbe 2fef d6bd
000000c0: 6aa9 553e 1991 debf 793a 803e 025c 6abd
000000d0: b7a9 adbe d171 83bf 384a f1be df0c eb3c
000000e0: 2f42 81bd d7d7 9cbe 7da5 f1bf 08e4 e93f
000000f0: 0cf7 a7be f290 abbe a503 bebd 8eec 593e
00000100: 4b7e bc3b e1f9 bbbe afef ab3f 27c9 7bbf
00000110: 8d6c b6be 3e16 343e 7f74 a53f b3a8 febc
00000120: 9d6f 14bf 1e02 cfbe e53b cd3f 5fbd 473f
00000130: 5a71 3d3f 4fc4 25be c128 b4bf 99ad a2bd
00000140: e334 c53e 64e9 d03d 8932 34be a75d 833f
00000150: d87a bebf 8dc4 6c3e 84cc b73f c54e 5abf
00000160: 63c3 af3c 974b 9d3f c00a 1bbf 4daf e2be
00000170: f1e6 58be 41ba 99bf ff60 a6bf ee39 9c3e
00000180: 6531 883f 8bb7 11be 4c19 37bf 52e0 2bbf
00000190: da13 583f 6ea5 273f d84e 79bf f53e 0d3d
000001a0: 9b77 6a3e 23a2 613f d4d5 0a3f 1e54 83bf
000001b0: 6c00 10bd 7829 8ebe 5d60 403c 9ddf c73f
000001c0: 4bc3 88bf 33d2 633b 30dc cdbc 0370 9ebe
000001d0: e427 46bd 9230 0ebd c6e3 f63e ca73 a93f
000001e0: 1174 423f c06a 6fbe 7ce1 3abe 2d04 ba3e
000001f0: 9171 a43e a8ec 8abe 82d4 723f ee01 123f

fc3.bias f4 [2]
-0.1445169 -0.029667543
00000000: 3dfc 13be 5909 f3bc
