DRL Nanodegree/Personal Exercises Solutios/4. Multi-Agent  Reinforcement Learning/p3_collab-compet/Critic1_solved.pth (torch_old, 68233 bytes, 11 tensors)

fcs1.weight f4 [42, 48]
000000 b6 51 db a1 7f 3f bb a0 dc 43 ea a2 ec 66 d1 a2
       -1.4861646e-18 -3.172105e-19 -6.3497676e-18 -5.6758536e-18
000010 9b cc 1f a3 60 13 94 1f dc 43 ea a2 ec 66 d1 a2
       -8.662734e-18 6.271249e-20 -6.3497676e-18 -5.6758536e-18
000020 6e 1b 61 22 8d b7 bd a1 d4 96 87 a3 60 91 3b a2
       3.0507707e-18 -1.2855724e-18 -1.4700608e-17 -2.5420187e-18
000030 57 ee e0 a2 35 32 14 a2 d4 96 87 a3 60 91 3b a2
       -6.0967674e-18 -2.008432e-18 -1.4700608e-17 -2.5420187e-18
000040 0a 30 51 a2 40 3a 35 22 14 d3 3a 23 72 f6 12 20
       -2.8350213e-18 2.4560911e-18 1.0127778e-17 1.2448223e-19
000050 f7 9d 86 22 55 f7 ed 21 14 d3 3a 23 72 f6 12 20
       3.6488025e-18 1.6125213e-18 1.0127778e-17 1.2448223e-19
000060 cd 7f 22 22 19 bf 1d a1 12 ff 1c a3 59 a5 ad a2
       2.2022751e-18 -5.3446585e-19 -8.51079e-18 -4.7066813e-18
000070 9b cc 1f 23 60 13 94 1f 12 ff 1c a3 59 a5 ad a2
       8.662734e-18 6.271249e-20 -8.51079e-18 -4.7066813e-18
000080 c9 19 3e a1 9e 87 e0 a1 3e c3 ba 21 d3 b2 1c a2
       -6.440863e-19 -1.5214728e-18 1.265553e-18 -2.1236611e-18
000090 57 ee e0 22 35 32 14 a2 3e c3 ba 21 d3 b2 1c a2
       6.0967674e-18 -2.008432e-18 1.265553e-18 -2.1236611e-18
0000a0 84 37 56 21 1f 81 e5 20 88 02 37 a4 fd 4d 44 22
       7.2579495e-19 3.8879554e-19 -3.9683944e-17 2.660424e-18
0000b0 f7 9d 86 a2 55 f7 ed 21 88 02 37 a4 fd 4d 44 22
       -3.6488025e-18 1.6125213e-18 -3.9683944e-17 2.660424e-18
0000c0 54 35 c6 bd 8a 2b b3 3d fa b8 a9 3b 13 c3 cf 3c
       -0.0967814 0.08748539 0.0051795216 0.025361573
0000d0 8c a2 b0 3d 20 0e af 3d 64 bb a9 3b 13 c3 cf 3c
       0.08624753 0.08547616 0.0051798094 0.025361573
0000e0 8c 5f b8 bc f9 a1 fc 3d 74 28 eb bb b2 ef db 3c
       -0.022506498 0.12335581 -0.0071764532 0.026847694
0000f0 e7 f6 e3 3c ab 07 8b 3d ae 17 eb bb b2 ef db 3c
       0.027827693 0.06788572 -0.0071744537 0.026847694
000100 52 9f f7 bb 58 c8 e9 3d 53 09 e0 bb 0e 05 c6 bd
       -0.0075568343 0.11415166 -0.006837049 -0.09668933
000110 0f d5 13 3e 71 a5 b2 3d 1c d1 df bb 0e 05 c6 bd
       0.14436744 0.08722962 -0.0068303477 -0.09668933
000120 25 d2 af 3a cf 3f 97 3d 93 6c e1 3b dc 73 73 bc
       0.0013414068 0.073852174 0.006879398 -0.014859166
000130 8c a2 b0 bd 20 0e af 3d a4 ef e3 3b dc 73 73 bc
       -0.08624753 0.08547616 0.0069560576 -0.014859166
000140 f1 4f 99 3d 5a dc a6 3d 97 df 17 bb f7 f9 1a bd
       0.07485951 0.081474975 -0.0023174041 -0.03783604
000150 e7 f6 e3 bc ab 07 8b 3d 86 ad 17 bb f7 f9 1a bd
       -0.027827693 0.06788572 -0.00231442 -0.03783604
000160 1c 08 21 3e 30 a6 48 3d 05 d5 64 3a 70 05 fb bd
       0.1572575 0.048986614 0.0008729252 -0.122568965
000170 0f d5 13 be 71 a5 b2 3d 4a 52 67 3a 70 05 fb bd
       -0.14436744 0.08722962 0.0008824213 -0.122568965
000180 18 1a d0 bd 6c b1 90 3c 47 4a 43 38 da 6b 0f bc
       -0.10161227 0.017662726 4.65608e-05 -0.008753741
000190 79 15 92 3c 80 2c f7 bd 87 9a 6d b9 da 6b 0f bc
       0.017832505 -0.120690346 -0.00022659647 -0.008753741
0001a0 b0 1f 90 bd f6 d9 20 3c 83 ec 68 ba a8 e0 53 bd
       -0.07037294 0.009817591 -0.00088853406 -0.05172792
0001b0 b4 eb 9d 3c a3 87 42 bd 16 4d a6 38 a8 e0 53 bd
       0.019277431 -0.047492635 7.929855e-05 -0.05172792
0001c0 32 90 99 3c cb f4 4d b9 53 8d ce ba ed 7a f0 bd
       0.018745515 -0.00019641516 -0.0015758671 -0.11742196
0001d0 af 09 cb 3d 65 e0 55 bd b0 23 13 bb ed 7a f0 bd
       0.099139564 -0.052215952 -0.0022451691 -0.11742196
0001e0 cb 50 28 3d 40 cb ff bd a4 46 9d 3a 33 9a f3 bc
       0.041092675 -0.12489939 0.0011999202 -0.029736614
0001f0 7c 15 92 bc 80 2c f7 bd 9f d9 4d 3b 33 9a f3 bc
       -0.01783251 -0.120690346 0.003141023 -0.029736614
000200 57 91 26 3d 76 69 0c be 95 93 65 bb 46 f3 df bc
       0.04066595 -0.13712105 -0.0035030593 -0.027337682
000210 b4 eb 9d bc a3 87 42 bd d6 65 f9 ba 46 f3 df bc
       -0.019277431 -0.047492635 -0.0019027542 -0.027337682
000220 42 ff 9a 3d 92 29 24 be 21 6f 9c ba 0a 24 b7 bd
       0.07568218 -0.16031483 -0.0011934974 -0.08942421
000230 af 09 cb bd 65 e0 55 bd ff af aa ba 0a 24 b7 bd
       -0.099139564 -0.052215952 -0.0013022422 -0.08942421
000240 ba c0 07 00 ea f1 02 80 66 63 00 80 3f 2a 09 00
       7.11986e-40 -2.70453e-40 -3.5657e-41 8.41675e-40
000250 ce eb 00 80 13 1f 02 80 66 63 00 80 3f 2a 09 00
       -8.4591e-41 -1.94818e-40 -3.5657e-41 8.41675e-40
000260 0a 85 04 00 89 3e 01 00 20 aa 62 80 3b 26 06 80
       4.15067e-40 1.14269e-40 -9.060908e-39 -5.64727e-40
000270 ab 67 03 00 2e bd 04 00 20 aa 62 80 3b 26 06 80
       3.12696e-40 4.35207e-40 -9.060908e-39 -5.64727e-40
000280 6e fb 02 80 18 97 06 80 ce 97 05 00 23 81 07 80
       -2.73867e-40 -6.05215e-40 5.13635e-40 -6.89174e-40
000290 69 76 07 80 82 4a 07 00 ce 97 05 00 23 81 07 80
       -6.85326e-40 6.69577e-40 5.13635e-40 -6.89174e-40
0002a0 67 99 04 80 ac 4b 0a 80 41 88 00 80 71 59 05 80
       -4.22372e-40 -9.45501e-40 -4.8879e-41 -4.91263e-40
0002b0 ce eb 00 00 13 1f 02 80 41 88 00 80 71 59 05 80
       8.4591e-41 -1.94818e-40 -4.8879e-41 -4.91263e-40
0002c0 bc 12 01 80 1a a4 01 80 1f ee 04 00 d4 3b 02 80
       -9.8556e-41 -1.50704e-40 4.52764e-40 -2.05133e-40
0002d0 ab 67 03 80 2e bd 04 00 1f ee 04 00 d4 3b 02 80
       -3.12696e-40 4.35207e-40 4.52764e-40 -2.05133e-40
0002e0 cd b5 05 00 c8 1e 06 00 b7 c0 07 80 46 d7 07 80
       5.24395e-40 5.62055e-40 -7.11982e-40 -7.20074e-40
0002f0 69 76 07 00 82 4a 07 00 b7 c0 07 80 46 d7 07 80
       6.85326e-40 6.69577e-40 -7.11982e-40 -7.20074e-40
000300 04 7f 02 80 3f f5 00 80 c1 dc 10 00 db 70 0e 00
       -2.29236e-40 -8.7978e-41 1.54856e-39 1.326182e-39
000310 06 7b 00 00 51 fa 0f 00 c1 dc 10 00 db 70 0e 00
       4.4132e-41 1.467329e-39 1.54856e-39 1.326182e-39
000320 ce 08 13 80 77 c6 0a 00 06 38 0c 00 ec b1 0b 00
       -1.748033e-39 9.89551e-40 1.122123e-39 1.074017e-39
000330 92 6f 11 80 4a b9 0e 00 06 38 0c 00 ec b1 0b 00
       -1.601227e-39 1.352166e-39 1.122123e-39 1.074017e-39
000340 28 c5 10 00 4e 76 11 00 da e7 0b 00 41 7c 09 80
       1.540094e-39 1.603643e-39 1.093363e-39 -8.71093e-40
000350 e0 7f 10 80 78 a0 15 00 da e7 0b 00 41 7c 09 80
       -1.515241e-39 1.986111e-39 1.093363e-39 -8.71093e-40
000360 bd a0 04 80 a5 86 06 80 c5 28 10 80 9c d1 10 80
       -4.25004e-40 -5.99314e-40 -1.483993e-39 -1.544562e-39
000370 06 7b 00 80 51 fa 0f 00 c5 28 10 80 9c d1 10 80
       -4.4132e-41 1.467329e-39 -1.483993e-39 -1.544562e-39
000380 dd f8 0e 00 6a f4 05 80 23 e9 03 00 46 96 01 00
       1.374972e-39 -5.46857e-40 3.5914e-40 1.45743e-40
000390 92 6f 11 00 4a b9 0e 00 23 e9 03 00 46 96 01 00
       1.601227e-39 1.352166e-39 3.5914e-40 1.45743e-40
0003a0 4a 3f 13 00 be c7 13 00 db bf 0b 00 4e ff 11 00
       1.767578e-39 1.816528e-39 1.079015e-39 1.65279e-39
0003b0 e0 7f 10 00 78 a0 15 00 db bf 0b 00 4e ff 11 00
       1.515241e-39 1.986111e-39 1.079015e-39 1.65279e-39
0003c0 6a 26 25 bd d5 33 52 bd 40 77 68 bc bd 62 b0 bd
       -0.040319838 -0.051318962 -0.014188588 -0.08612583
0003d0 a1 91 64 bd 43 3a 37 bd d5 7b 68 bc bd 62 b0 bd
       -0.055802945 -0.044733297 -0.01418968 -0.08612583
0003e0 23 1a 59 bd c2 32 71 bd 3e b8 14 bc a7 98 03 bd
       -0.05300344 -0.058886297 -0.00907713 -0.032128002
0003f0 38 68 94 bd 7b 6b 9f bc b6 b8 14 bc a7 98 03 bd
       -0.07246441 -0.01946043 -0.009077242 -0.032128002

fcs1.bias f4 [42]
000000 50 03 1c 97 85 96 ef b3 10 80 93 b4 16 50 02 00
       -5.04105e-25 -1.1156684e-07 -2.7474061e-07 2.124e-40
000010 ce 6d 14 80 20 d7 b8 31 b9 fe 03 b5 2f 48 12 00
       -1.8761e-39 5.3795617e-09 -4.9171973e-07 1.678934e-39
000020 2c 5c 14 80 d0 7c f0 31 d1 2f 15 00 6a 2e 5c b4
       -1.869775e-39 6.999109e-09 1.945699e-39 -2.0505982e-07
000030 89 0c b2 34 6b 97 11 00 a2 a8 06 15 99 43 02 80
       3.3164204e-07 1.615522e-39 2.7194112e-26 -2.0792e-40
000040 80 c9 0b 80 de 19 c3 b4 6c 34 43 b5 11 f3 7f 35
       -1.082475e-39 -3.63404e-07 -7.2719445e-07 9.534861e-07
000050 27 4e 12 00 6f c3 0f 80 e7 99 fd 31 d0 1a 12 00
       1.681075e-39 -1.447641e-39 7.3807658e-09 1.662657e-39
000060 a9 fb 41 35 fb 2c 10 80 aa 56 15 00 2d ad 03 34
       7.2264316e-07 -1.485504e-39 1.959635e-39 1.2263327e-07
000070 f9 45 6e 33 2f f6 03 33 8c e8 0f 00 2e da f9 1f
       5.5477333e-08 3.0724717e-08 1.460955e-39 1.0581655e-19
000080 5a 73 12 80 6d b5 15 00 c2 72 d6 32 60 64 46 33
       -1.694419e-39 1.993629e-39 2.4965065e-08 4.6191758e-08
000090 4e 45 20 b4 5d b8 14 80 f8 3a 97 b3 f3 4b c8 b3
       -1.4926374e-07 -1.902847e-39 -7.042212e-08 -9.327041e-08
0000a0 27 80 0d 80 e4 52 00 00
       -1.239834e-39 2.9736e-41

bn1.weight f4 [42]
000000 c4 18 ca a4 b1 53 ab 3e 3e 3a 9d 3e 6a fc 4f b3
       -8.764549e-17 0.3346229 0.30708498 -4.8425512e-08
000010 13 12 06 80 56 b3 3d 3e c1 a2 b0 3e 37 00 0a b1
       -5.57497e-40 0.18525442 0.3449917 -2.0081765e-09
000020 5d 0c 0c 00 32 c4 ab 3e 87 e7 9d a5 64 26 2e 3f
       1.106461e-39 0.33548123 -2.7392048e-16 0.6802733
000030 79 78 0b 3f b1 fc 01 80 27 aa 18 ba 67 75 0e 3b
       0.544807 -1.82484e-40 -0.00058236945 0.0021737458
000040 9d 72 34 89 10 db ae 3e 83 c4 0b 3f 89 f7 a3 3e
       -2.1720603e-33 0.34151506 0.5459673 0.32024792
000050 3c c8 04 00 1a 82 10 81 3e 4c 60 3e 87 d3 02 00
       4.39173e-40 -2.6541966e-38 0.21904084 2.59553e-40
000060 5a ae fe 3e 3e b8 0c 80 e0 b5 01 00 34 f4 3a 3e
       0.49742395 -1.16812e-39 1.5708e-40 0.18257219
000070 7f 97 83 3e 0b 2a 71 3e aa 34 01 80 d4 d9 25 b0
       0.2570152 0.23551194 -1.10728e-40 -6.03362e-10
000080 0d e5 08 80 f9 5e 88 08 75 48 44 3e 7b 0c 27 3f
       -8.16852e-40 8.20753e-34 0.19168265 0.6525342
000090 c4 85 ce 3e 6e 52 b3 38 0c 85 85 3e df b7 10 3f
       0.4033643 8.550739e-05 0.2607807 0.56530565
0000a0 9b 80 00 00 a6 06 16 07
       4.6135e-41 1.12867e-34

bn1.bias f4 [42]
000000 97 22 be bb ca da 0b 3e 6b 87 02 bd a8 6d 88 b7
       -0.0058024633 0.1365768 -0.031867426 -1.6263526e-05
000010 63 fc 32 af cb 95 de bd 71 c4 ac 3d 71 d4 cb b6
       -1.6278671e-10 -0.108684145 0.08435906 -6.074603e-06
000020 45 5f c8 95 20 06 fb bd a5 93 89 ad 0d 14 3f 3c
       -8.0929666e-26 -0.122570276 -1.5640664e-11 0.011662495
000030 a7 4a 2d 3d c6 c3 5a b7 d9 62 a4 bc e4 a0 a7 bb
       0.042307522 -1.3039395e-05 -0.020066665 -0.005115615
000040 08 b6 54 9a c1 63 2b 3d b7 78 16 be 72 9a 3c be
       -4.3987616e-23 0.04184318 -0.14694487 -0.18418291
000050 d4 ba 6e 93 0d 71 cc 9c dc b4 31 bd a4 04 98 b5
       -3.0131937e-27 -1.3528811e-21 -0.04338537 -1.1326233e-06
000060 da 34 7a be 48 aa 88 35 cc 32 96 aa 40 d5 d4 bd
       -0.24434224 1.0182348e-06 -2.66806e-13 -0.10392237
000070 d8 16 1e bd d1 54 8a 3d 98 9a bc b8 3a 69 89 bc
       -0.038596004 0.06754459 -8.993334e-05 -0.016773809
000080 2e eb 42 b6 2d 4f ea bb 59 9f 1c be e1 de 9a 3e
       -2.9045145e-06 -0.007150552 -0.15295161 0.30248168
000090 9d 88 0c 3d f6 86 89 b9 be c7 ed 3d 71 38 b1 bd
       0.034309972 -0.0002623123 0.116103634 -0.086533435
0000a0 0c 60 aa 92 e6 e1 bb b6
       -1.0752186e-27 -5.5993323e-06

bn1.running_mean f4 [42]
000000 64 a1 40 a6 53 5b 49 3f 88 99 b2 bf c9 c3 02 82
       -6.6832107e-16 0.78654975 -1.3953104 -9.607079e-38
000010 2b f8 7e 01 a8 7a 82 3f 26 c3 3b 40 98 f6 02 00
       4.6830484e-38 1.0193682 2.933786 2.72132e-40
000020 26 6a 85 81 02 94 a8 bf 1a 45 4e a7 88 df 66 be
       -4.90088e-38 -1.3170168 -2.8625703e-15 -0.22546208
000030 b6 c9 da be a6 c3 01 01 6f bf 9d 3a 0a 4b e4 37
       -0.42732018 2.383393e-38 0.0012035201 2.721466e-05
000040 da c8 c6 aa 5e 57 0b 40 d8 f4 75 3e 15 04 8d c0
       -3.5311234e-13 2.1772075 0.24019182 -4.4067483
000050 f3 6e 66 00 8d df 80 00 44 39 23 3d fe e6 5b 80
       9.407022e-39 1.1835138e-38 0.039849535 -8.439895e-39
000060 13 a1 c2 be 3d f0 e4 00 ea e3 82 25 8d 06 22 c0
       -0.38013515 2.1024674e-38 2.2705846e-16 -2.5316498
000070 31 2d 2f bf f8 d1 6c 40 a2 2e 89 01 a1 49 26 32
       -0.6842833 3.7003155 5.0392767e-38 9.679213e-09
000080 3d a7 c3 80 65 2a 32 06 5a d6 8b be 29 22 a2 3e
       -1.7967916e-38 3.3509226e-35 -0.27311975 0.31666687
000090 d3 3d 54 c0 47 26 7e 1d 13 e1 01 40 59 9a a8 40
       -3.3162735 3.363641e-21 2.0293624 5.2688413
0000a0 67 d6 5c 80 96 a4 cd 89
       -8.525779e-39 -4.950673e-33

bn1.running_var f4 [42]
000000 66 be b0 0e 0a 09 3c 41 0a 21 9b 40 04 00 00 00
       4.3570697e-30 11.752207 4.847783 6e-45
000010 04 00 00 00 56 7a 42 41 da ae da 40 04 00 00 00
       6e-45 12.154867 6.833844 6e-45
000020 04 00 00 00 42 83 e9 40 f9 c2 94 10 44 29 8e 42
       6e-45 7.2972727 5.867611e-29 71.0806
000030 a9 4f 9e 40 04 00 00 00 b6 ae 11 3c 26 6c eb 31
       4.947224 6e-45 0.008891752 6.851695e-09
000040 13 dc a2 17 ab bf 84 40 82 61 90 40 f5 d6 7a 40
       1.0524559e-24 4.148397 4.511903 3.91937
000050 04 00 00 00 04 00 00 00 95 d3 72 41 04 00 00 00
       6e-45 6e-45 15.176656 6e-45
000060 79 65 83 41 04 00 00 00 a8 bb a0 0d 90 02 05 41
       16.424547 6e-45 9.905938e-31 8.313126
000070 79 df 87 40 98 c7 d3 40 04 00 00 00 2b eb 44 27
       4.2460294 6.6181145 6e-45 2.7327949e-15
000080 04 00 00 00 04 00 00 00 1b 73 76 41 41 e6 3d 40
       6e-45 6e-45 15.403102 2.9671786
000090 81 01 07 41 5e 4d 01 00 2b 3d 78 40 43 50 f6 41
       8.437867 1.1959e-40 3.8787334 30.78919
0000a0 04 00 00 00 04 00 00 00
       6e-45 6e-45

fc2.weight f4 [128, 46]
000000 d4 dd 10 80 4f 4c 93 b5 19 fa 80 ac d7 77 10 00
       -1.548945e-39 -1.0974562e-06 -3.6657452e-12 1.512358e-39
000010 36 4c 13 80 af 8f 23 2d e0 1d 9a 2c bb 1e 11 80
       -1.772214e-39 9.2973814e-12 4.38026e-12 -1.572227e-39
000020 3b 83 00 00 fd ba 7c 2e f3 2e 0b 80 3d 71 35 b8
       4.7077e-41 5.7464245e-11 -1.027033e-39 -4.3259224e-05
000030 21 d6 f1 ad aa 3c 06 80 da 2c 14 00 e6 dc 13 80
       -2.749362e-11 -5.72775e-40 1.8528e-39 -1.824118e-39
000040 b8 e7 12 80 fc 20 a3 2e 42 2f 18 b6 57 ff 3f ae
       -1.736164e-39 7.418241e-11 -2.2677273e-06 -4.365516e-11
000050 8c a4 10 80 df 90 07 00 2d 97 53 ae b1 1d 3b 06
       -1.528396e-39 6.94818e-40 -4.8110117e-11 3.5192605e-35
000060 67 33 8c 2e 20 e2 0c 80 ed a8 13 00 3c b9 12 ab
       6.375594e-11 -1.183144e-39 1.805474e-39 -5.2126684e-13
000070 e8 d6 f9 2d 22 2d 1d af 82 f8 0f 80 36 13 26 11
       2.840346e-11 -1.4295101e-10 -1.46668e-39 1.3101011e-28
000080 49 87 05 80 c2 49 06 00 bf ae 52 2d 3b c8 9b b7
       -5.07709e-40 5.77472e-40 1.1975919e-11 -1.857068e-05
000090 49 f2 ba 34 9d 04 04 80 8c 62 e5 ac 6d ab 0d ae
       3.4821485e-07 -3.68997e-40 -6.5195124e-12 -3.2211945e-11
0000a0 80 00 00 00 68 67 e6 11 28 f4 ec b7 1d 00 86 b9
       1.8e-43 3.635133e-28 -2.8247086e-05 -0.00025558556
0000b0 04 e8 9f b9 c3 33 ca 37 ad d9 10 00 83 6a 06 00
       -0.00030499708 2.410438e-05 1.547455e-39 5.89222e-40
0000c0 be 6c 01 00 82 13 05 00 0a 30 10 00 3c cc 08 00
       1.30845e-40 4.66176e-40 1.486601e-39 8.0795e-40
0000d0 4c a4 02 80 09 95 0f 80 35 cf 12 00 4a 49 07 80
       -2.4261e-40 -1.430996e-39 1.727371e-39 -6.6914e-40
0000e0 01 af 10 00 ae 0a 08 00 78 3e 01 00 cc ec 0b 00
       1.532148e-39 7.38515e-40 1.14245e-40 1.095137e-39
0000f0 06 81 13 00 ac 3d 13 00 ba 22 12 00 9d e4 04 00
       1.79116e-39 1.766998e-39 1.665496e-39 4.49353e-40
000100 14 5b 06 80 67 05 06 80 7d b5 01 80 8d d6 05 00
       -5.83686e-40 -5.52951e-40 -1.56941e-40 5.36144e-40
000110 26 f5 03 80 5a 74 01 00 b8 73 00 00 0d 78 04 00
       -3.63449e-40 1.33575e-40 4.1512e-41 4.10408e-40
000120 49 7a 0e 00 3c be 09 00 41 55 02 00 09 f3 04 00
       1.329565e-39 8.94763e-40 2.14254e-40 4.54527e-40
000130 38 e5 13 00 ff f1 0c 80 3d 20 13 00 0f 6f 11 00
       1.827103e-39 -1.188838e-39 1.75644e-39 1.601044e-39
000140 38 a0 01 00 20 d0 06 00 23 b4 09 00 84 c4 0e 00
       1.49311e-40 6.25674e-40 8.9114e-40 1.356193e-39
000150 af c9 02 00 b0 49 40 86 fa 7e 0b 80 b6 7b 04 80
       2.56021e-40 -3.6165323e-35 -1.055741e-39 -4.11721e-40
000160 8f ee 4f 26 c6 fb 0c a7 2c 0c b1 a3 05 b8 99 9c
       7.214086e-16 -1.956539e-15 -1.9195533e-17 -1.0172259e-21
000170 d1 a6 10 80 13 e1 8c a4 b1 42 54 a4 d8 54 02 00
       -1.52921e-39 -6.109661e-17 -4.6026662e-17 2.14107e-40
000180 7b 6f 13 00 12 b7 93 8b 54 9b e7 a4 56 8b 0b 00
       1.784866e-39 -5.6897794e-32 -1.0044342e-16 1.060175e-39
000190 99 6f 0c 80 4e 23 32 24 2b 60 03 80 1f e6 04 a4
       -1.14206e-39 3.86275e-17 -3.10005e-40 -2.8817858e-17
0001a0 8b 58 75 21 ce 46 15 00 11 ef 15 00 6a e6 15 80
       8.3126414e-19 1.953945e-39 2.014306e-39 -2.011202e-39
0001b0 11 07 00 00 f8 90 df 25 b8 ab c5 8c 12 b9 d3 8b
       2.535e-42 3.8782568e-16 -3.0456005e-31 -8.1552707e-32
0001c0 6a 78 05 00 b7 b4 05 00 25 65 a0 a4 da a2 1e 19
       5.02374e-40 5.24006e-40 -6.9560285e-17 8.201296e-24
0001d0 69 bb 3f 25 7c 68 8d 93 80 50 0c 00 ae 58 54 a4
       1.6630106e-16 -3.5696434e-27 1.130904e-39 -4.6045287e-17
0001e0 b8 17 af 23 ce 53 04 24 62 02 15 00 9b 06 04 80
       1.8983583e-17 2.8693923e-17 1.9294e-39 -3.69712e-40
0001f0 95 e2 0e 80 e9 88 0d 00 8d 39 92 8a fe 86 0a a6
       -1.366979e-39 1.242976e-39 -1.4080937e-32 -4.8061316e-16
000200 f2 91 0c a3 11 55 02 80 d9 e0 09 24 d1 ed 24 a5
       -7.62032e-18 -2.14187e-40 2.9897593e-17 -1.4305308e-16
000210 de 62 0f 80 1e 67 01 80 5f 34 6c a6 c9 43 3b a8
       -1.413e-39 -1.28827e-40 -8.1949924e-16 -1.0395284e-14
000220 32 da ea a4 d2 f1 a1 a5 a8 5e 13 00 9c 1f 02 00
       -1.0185096e-16 -2.8092912e-16 1.77883e-39 1.9501e-40
000230 68 ac 06 00 d3 53 00 00 c1 35 11 00 1d 7a 08 00
       6.1286e-40 3.007e-41 1.580487e-39 7.7849e-40
000240 ab 4e 0f 15 f2 ca 05 80 e3 a7 06 00 73 71 01 00
       2.8940678e-26 -5.3198e-40 6.1124e-40 1.32533e-40
000250 4d c6 10 80 14 0f 56 80 24 77 bb a0 d6 ce 10 80
       -1.540505e-39 -7.903262e-39 -3.1757873e-19 -1.543567e-39
000260 8a 62 14 80 f2 de 0a 00 79 aa 05 80 5f e3 05 80
       -1.872059e-39 9.98333e-40 -5.20332e-40 -5.40743e-40
000270 57 d9 04 00 46 d2 06 80 46 ec 10 80 f5 20 11 80
       4.45309e-40 -6.26445e-40 -1.554127e-39 -1.573026e-39
000280 6e bb 06 80 cf d1 05 00 56 de 02 00 8b f9 07 00
       -6.1825e-40 5.34443e-40 2.6343e-40 7.32368e-40
000290 4b a7 14 80 8d 9b 02 00 8b e2 04 00 85 44 02 80
       -1.896723e-39 2.39472e-40 4.4861e-40 -2.08251e-40
0002a0 55 76 08 00 c5 81 14 00 77 a5 0f 00 91 28 05 80
       7.77134e-40 1.883262e-39 1.43689e-39 -4.7373e-40
0002b0 4c 43 02 00 90 96 17 95 5d 13 04 00 ff 11 03 00
       2.07813e-40 -3.061298e-26 3.74288e-40 2.81962e-40
0002c0 9d 5b 01 80 76 5b 8e 84 04 1d 11 80 27 10 00 80
       -1.247e-40 -3.3468033e-36 -1.571612e-39 -5.794e-42
0002d0 14 8e 0e 2e 49 ba 41 b0 03 6e 0a ac c1 b2 f1 af
       3.2413253e-11 -7.047772e-10 -1.9672048e-12 -4.3964657e-10
0002e0 aa 89 0b 80 3b 19 8a b4 42 d6 91 b1 10 50 05 80
       -1.059575e-39 -2.572286e-07 -4.2444137e-09 -4.87898e-40
0002f0 ba 3c 10 00 c1 5b d7 b0 9f b8 05 b8 68 0e 0d 00
       1.491153e-39 -1.5669387e-09 -3.1881613e-05 1.19903e-39
000300 33 05 08 00 dd 80 97 30 11 9d 10 00 5c 32 dc b6
       7.36549e-40 1.1023321e-09 1.525713e-39 -6.5623735e-06
000310 b0 0c f2 b9 b4 ed 0d 00 c9 56 0e 00 fb cc c1 80
       -0.0004616729 1.279133e-39 1.31683e-39 -1.7797784e-38
000320 27 e8 12 00 e9 7b 8a b5 98 cf a5 b5 2b d3 34 33
       1.73632e-39 -1.0317864e-06 -1.2353876e-06 4.2101572e-08
000330 3a 02 0b 00 91 da 13 00 d0 f6 8a a5 5a 62 12 00
       1.010989e-39 1.823281e-39 -2.410643e-16 1.688321e-39
000340 e4 81 79 b6 b8 32 0c 00 6a ca 10 00 14 dc 0e 9d
       -3.7179498e-06 1.12022e-39 1.54198e-39 -1.8907321e-21
000350 2b a7 0b b5 bb e9 39 b3 e7 e4 05 80 bc 05 69 01
       -5.2024797e-07 -4.3286246e-08 -5.41292e-40 4.2799455e-38
000360 3a 67 0b 00 49 35 16 8d 19 0c a3 03 bd 12 25 b8
       1.047221e-39 -4.628646e-31 9.583056e-37 -3.9356517e-05
000370 79 28 2a b3 49 f0 12 00 62 cf 1c b4 b7 15 c3 b9
       -3.961802e-08 1.739237e-39 -1.4604078e-07 -0.00037209477
000380 b0 24 0b 00 b9 f6 08 80 53 4c 12 ba 07 b4 91 ba
       1.023351e-39 -8.23191e-40 -0.0005580831 -0.0011116274
000390 59 5c a3 b9 36 2e 45 39 12 0c ed 95 ee 93 6f 38
       -0.00031158587 0.00018804599 -9.574258e-26 5.711981e-05
0003a0 ef dd 50 38 60 2c 13 80 5a e6 15 80 bb 38 bd b7
       4.9797756e-05 -1.760793e-39 -2.01118e-39 -2.2556973e-05
0003b0 92 95 1d 38 1c ec 13 80 a8 99 4b 04 84 bb 94 2a
       3.7571015e-05 -1.829575e-39 2.393309e-36 2.6420196e-13
0003c0 72 1b 11 80 a4 66 8d 38 79 27 0c bc f0 2b 03 80
       -1.571049e-39 6.742522e-05 -0.008554333 -2.91268e-40
0003d0 75 82 7d 99 bd 40 68 84 b5 2e 02 80 ee 8e 33 38
       -1.3106139e-23 -2.7301195e-36 -2.00426e-40 4.281004e-05
0003e0 bf 31 76 27 2f 06 a7 34 4e 9a 0f 00 28 52 09 00
       3.4166325e-15 3.1110673e-07 1.432887e-39 8.55992e-40
0003f0 7f 31 9f 32 dd f6 e4 ab 70 d3 e5 b8 4b ed 99 9e
       1.8532544e-08 -1.6268893e-12 -0.00010958954 -1.6297647e-20

fc2.bias f4 [128]
000000 53 27 d1 ba 46 72 90 ab 22 47 a1 a8 88 83 c3 b1
       -0.0015957154 -1.0263533e-12 -1.790544e-14 -5.6902003e-09
000010 94 aa 81 bb 06 2e 86 bc 5c d6 06 b7 ee 1f e8 af
       -0.003957102 -0.016379368 -8.036932e-06 -4.2223242e-10
000020 6e 93 40 b5 99 6f df bb 5f bd 7e b7 ad 67 eb 9d
       -7.174011e-07 -0.0068187234 -1.5183671e-05 -6.231118e-21
000030 e5 0f 84 b7 19 48 7f bb 7a 5b c3 a7 e4 a9 0a a7
       -1.5743028e-05 -0.0038952886 -5.422255e-15 -1.9243445e-15
000040 55 50 a6 b1 c5 26 41 be c2 19 bd b4 4d 3f e1 bc
       -4.8403686e-09 -0.18862446 -3.5222735e-07 -0.027496004
000050 f0 f9 91 bb e9 7c 5f a4 f6 4d a6 ba 58 9e be 9c
       -0.0044548437 -4.846122e-17 -0.0012688029 -1.2614076e-21
000060 28 bb 43 bc ce c0 5e 3d 84 58 10 bd 8a 59 b6 bd
       -0.011946477 0.05438309 -0.035240665 -0.08903797
000070 48 b2 ff a9 fc 2d ae bc b2 b8 32 bd 9e a5 56 bb
       -1.1355202e-13 -0.021262161 -0.04363317 -0.0032752524
000080 c2 29 8d b4 25 dc 20 a4 ed 0e cb bd fa 3d bd ab
       -2.629368e-07 -3.488094e-17 -0.09914956 -1.344646e-12
000090 a4 17 5e b3 6a e4 eb 96 dd 85 0a be 1b 59 47 a1
       -5.1709904e-08 -3.8110447e-25 -0.13527627 -6.7541753e-19
0000a0 91 ae 28 bd b9 a8 04 be 16 b5 37 bd d7 41 1a bd
       -0.041182104 -0.12954988 -0.04485043 -0.037660446
0000b0 1c 1c 96 ad 6c 7e bf bc 29 10 bd ba 92 6a fb bc
       -1.7065509e-11 -0.023375712 -0.0014424372 -0.030690465
0000c0 10 95 fa a7 0b fd 42 3d 30 b4 25 9c 0f 01 df 99
       -6.9550553e-15 0.0476046 -5.4826807e-22 -2.3058087e-23
0000d0 13 94 ed 23 04 bc 6c 3d 0e 64 f4 b9 04 b2 ca bc
       2.5758303e-17 0.057796493 -0.00046613853 -0.024743088
0000e0 a8 88 11 b6 f9 60 5e bb a8 94 a9 b8 c5 e8 d5 bc
       -2.1686228e-06 -0.0033932312 -8.086237e-05 -0.02611197
0000f0 1a ed 3c b6 97 dc 8b bd 81 5f ca 91 b7 8f af b3
       -2.8152194e-06 -0.068291835 -3.192884e-28 -8.175214e-08
000100 3d 04 38 a6 17 ab 5a bb b6 38 b4 a5 95 09 cc ba
       -6.384357e-16 -0.0033366138 -3.1263451e-16 -0.001556682
000110 8c 90 eb bc e7 8b 25 a5 86 ba 11 a9 23 e6 f7 bc
       -0.028755449 -1.435887e-16 -3.235825e-14 -0.030261105
000120 c8 a5 20 8a af ca 8c b4 48 00 20 a5 b7 51 81 b6
       -7.7349e-33 -2.6224504e-07 -1.3877883e-16 -3.8540124e-06
000130 f7 5f 64 a3 1e d7 70 bd c8 4b 01 bd 7e 89 5f be
       -1.2380226e-17 -0.0587989 -0.03156641 -0.21829793
000140 0b 27 6a b6 d3 05 ce bd 7b 1c 92 9f f5 f9 4d bd
       -3.4891443e-06 -0.10059705 -6.188052e-20 -0.050287206
000150 42 90 1d bd d6 cc 16 bc 99 88 75 99 67 e9 ba a7
       -0.038467653 -0.00920411 -1.2693789e-23 -5.1878426e-15
000160 d0 7f 29 b6 cf d1 a3 bd 4d 97 07 be 33 33 cb ab
       -2.525736e-06 -0.07999002 -0.1324131 -1.4438228e-12
000170 ed 4d 68 bb a8 9c c5 bc 36 e6 9e ac 51 21 93 bb
       -0.0035446838 -0.024122551 -4.5161886e-12 -0.0044900556
000180 54 3b a9 b4 c7 32 61 bd 1e 88 ee ae 02 c1 00 be
       -3.152187e-07 -0.054980066 -1.0847166e-10 -0.12573627
000190 f3 2a 92 97 89 69 18 b1 6b b7 66 3d 5c ff ca 3c
       -9.445871e-25 -2.21789e-09 0.056327265 0.024779968
0001a0 b2 2c e1 92 60 ac 05 bd 7f 1a 99 aa a0 89 00 bb
       -1.4210515e-27 -0.032635093 -2.7196645e-13 -0.001961328
0001b0 e5 52 36 ba 5b e4 d9 3d f4 3a 76 b5 a1 19 03 b8
       -0.0006955101 0.106392585 -9.172793e-07 -3.1256703e-05
0001c0 40 a9 1c bc 30 9a dc bc 32 2e 83 b7 ce 64 96 ac
       -0.009561837 -0.026928991 -1.5637928e-05 -4.274448e-12
0001d0 fb 0b d3 bc 05 a5 bd b3 41 83 5c b6 dd 56 24 bd
       -0.025762549 -8.831015e-08 -3.2858954e-06 -0.0401219
0001e0 fb af 49 bb 3e 7a d6 b9 f0 79 5c b8 aa d0 e0 b2
       -0.0030775059 -0.00040908338 -5.256565e-05 -2.6171922e-08
0001f0 c7 73 c0 bc ef ac f9 af 1a f2 cf bc 2b ef 8d b3
       -0.023492707 -4.5415713e-10 -0.025383998 -6.6093286e-08

fc3.weight f4 [64, 128]
000000 0c a2 00 00 3c ef 04 80 39 53 10 80 c8 d7 15 80
       5.8131e-41 -4.53163e-40 -1.499223e-39 -2.005953e-39
000010 93 9f 0c 80 84 cc 0b 00 f0 2f 10 00 cb d2 0a 00
       -1.15927e-39 1.083557e-39 1.486565e-39 9.93973e-40
000020 3b c3 0c 00 b3 54 11 00 e6 54 11 80 ae df 0b 80
       1.172061e-39 1.591588e-39 -1.591659e-39 -1.090432e-39
000030 f1 a6 05 00 58 46 0f 00 10 0d 15 80 d0 18 11 00
       5.19065e-40 1.402767e-39 -1.933231e-39 1.570104e-39
000040 39 8d 12 00 0b 9e 05 80 25 20 05 80 72 c1 11 00
       1.7037e-39 -5.15873e-40 -4.70709e-40 1.630599e-39
000050 6f 72 0b 80 b4 0c 0e 80 80 c7 05 80 47 94 0f 80
       -1.051241e-39 -1.290254e-39 -5.30745e-40 -1.430724e-39
000060 10 e3 07 00 ab 2a 01 80 fc a9 07 00 bc f0 05 80
       7.24303e-40 -1.07142e-40 7.03827e-40 -5.45537e-40
000070 7d 1a 13 80 29 62 0c 80 9c 44 0e 00 af 3d 0e 00
       -1.754377e-39 -1.137239e-39 1.31031e-39 1.307825e-39
000080 73 0e 03 80 95 aa 0e 80 4e e2 01 00 34 0c 13 00
       -2.8069e-40 -1.34689e-39 1.73018e-40 1.749252e-39
000090 b5 1c 10 00 65 8a 15 00 74 d5 03 80 65 32 06 00
       1.479666e-39 1.978192e-39 -3.52079e-40 5.69091e-40
0000a0 1b a2 0b 80 d9 c9 0a 80 e9 05 10 80 e2 37 13 00
       -1.068343e-39 -9.90764e-40 -1.471488e-39 1.764921e-39
0000b0 a8 38 13 80 78 34 10 00 b3 c3 0b 00 ea 8a 15 00
       -1.765199e-39 1.48819e-39 1.080394e-39 1.978378e-39
0000c0 01 0a 10 00 ee 13 01 80 a1 e5 01 00 dd 60 0f 00
       1.472957e-39 -9.8985e-41 1.74211e-40 1.41228e-39
0000d0 e4 e6 04 80 4c 28 04 80 96 b7 15 00 96 df 0c 00
       -4.5017e-40 -3.81798e-40 1.994404e-39 1.182233e-39
0000e0 c2 60 02 80 fc df 0b 80 a8 88 15 00 2e e1 13 80
       -2.18381e-40 -1.090541e-39 1.977568e-39 -1.825654e-39
0000f0 c0 8d 13 80 b2 0f 00 80 2e 2c 15 80 30 fc 06 80
       -1.795725e-39 -5.63e-42 -1.944394e-39 -6.41481e-40
000100 bf fd 0a 00 ab 48 08 00 88 41 0c 80 df d5 0e 80
       1.009382e-39 7.60752e-40 -1.125534e-39 -1.36242e-39
000110 22 20 10 80 fd df 0e 00 cd b0 0e 80 81 f3 0e 00
       -1.480895e-39 1.366049e-39 -1.349121e-39 1.37305e-39
000120 96 75 11 80 ef a7 14 00 11 af 10 80 9e bb 15 80
       -1.603385e-39 1.896953e-39 -1.53217e-39 -1.99585e-39
000130 4c 17 07 80 9d fc 00 80 88 65 06 00 45 a7 01 80
       -6.51206e-40 -9.062e-41 5.87436e-40 -1.5184e-40
000140 fc d1 05 80 11 c2 07 00 fb 7b 04 80 6e ce 0a 00
       -5.34506e-40 7.12466e-40 -4.11818e-40 9.92408e-40
000150 d4 61 13 80 05 bb 05 80 e3 e6 12 80 f8 1b 14 80
       -1.779969e-39 -5.26267e-40 -1.735865e-39 -1.846743e-39
000160 dc e2 05 80 54 21 03 00 f2 05 0a 80 d0 1f 0f 80
       -5.40559e-40 2.87462e-40 -9.20488e-40 -1.388945e-39
000170 35 3e 13 00 49 88 0b 80 7e 78 15 80 a3 dc 0e 80
       1.76719e-39 -1.05908e-39 -1.97177e-39 -1.364846e-39
000180 75 d9 03 00 70 29 00 80 e2 bc 11 00 f9 a1 06 00
       3.53515e-40 -1.4865e-41 1.628962e-39 6.09118e-40
000190 8b d3 0c 00 dd 71 00 80 84 9d 07 80 31 c9 04 80
       1.177913e-39 -4.0846e-41 -6.99354e-40 -4.39516e-40
0001a0 3d f3 01 00 8d 25 10 00 c4 7e 10 00 2d 8a 15 00
       1.79093e-40 1.482839e-39 1.514843e-39 1.978114e-39
0001b0 31 40 10 80 8e 73 08 80 87 28 06 00 25 78 12 80
       -1.492395e-39 -7.76137e-40 5.65551e-40 -1.696139e-39
0001c0 5a 84 04 00 a3 9f 05 00 4a 0b 00 00 17 f7 0a 80
       4.14821e-40 5.16444e-40 4.05e-42 -1.006994e-39
0001d0 11 90 14 00 16 28 11 80 1f 45 15 80 ae b5 0c 80
       1.888391e-39 -1.575584e-39 -1.953341e-39 -1.1672e-39
0001e0 35 a0 06 80 d6 0e 10 00 20 55 14 80 c4 f9 0e 80
       -6.08484e-40 1.47469e-39 -1.867247e-39 -1.375296e-39
0001f0 28 b8 06 00 71 91 01 00 cc 73 12 80 aa 91 13 00
       6.17076e-40 1.4401e-40 -1.694579e-39 1.797129e-39
000200 4d 8f 14 00 36 b3 09 00 58 e5 0c 00 b3 6c 10 80
       1.888117e-39 8.90808e-40 1.184299e-39 -1.508362e-39
000210 c9 6f 13 80 49 8f 11 00 34 d9 12 00 b3 93 0e 00
       -1.784975e-39 1.612604e-39 1.730957e-39 1.338681e-39
000220 2f 63 13 80 97 6f 00 80 5c 38 0d 00 c2 21 0d 80
       -1.780455e-39 -4.0031e-41 1.21408e-39 -1.205971e-39
000230 0f 84 0b 00 52 97 0f 80 4c 50 0a 00 7a 74 13 80
       1.057564e-39 -1.431816e-39 9.4716e-40 -1.786658e-39
000240 dd 6b 01 80 55 9a 00 00 fd 70 11 80 28 62 03 00
       -1.3053e-40 5.5364e-41 -1.601736e-39 3.10718e-40
000250 66 34 10 00 60 8a 14 80 c6 19 01 80 7d b8 0e 00
       1.488165e-39 -1.88635e-39 -1.01081e-40 1.351879e-39
000260 28 07 11 80 ab ca 07 80 10 c9 09 80 d4 62 08 00
       -1.56377e-39 -7.15552e-40 -8.98647e-40 7.70137e-40
000270 1f 75 0a 80 d9 a1 0b 00 00 7e 13 80 cc 26 10 80
       -9.6037e-40 1.06825e-39 -1.790075e-39 -1.483286e-39
000280 82 29 02 00 0f e4 0e 80 7e 82 0e 80 8f af 00 80
       1.98561e-40 -1.367509e-39 -1.332509e-39 -6.2979e-41
000290 fd af 0f 00 76 fc 13 80 b4 d0 0b 80 8d 62 00 00
       1.440665e-39 -1.83544e-39 -1.085059e-39 3.5353e-41
0002a0 a6 0a 02 00 86 46 04 00 6a 65 0c 00 ae 92 13 80
       1.87491e-40 3.92641e-40 1.138406e-39 -1.797493e-39
0002b0 cb 71 05 80 ad f1 0c 00 d0 15 10 80 d1 55 08 00
       -4.99999e-40 1.188723e-39 -1.477193e-39 7.65469e-40
0002c0 df 82 0f 00 98 6c 01 00 10 a1 10 80 e2 3d 0b 80
       1.42448e-39 1.30792e-40 -1.527146e-39 -1.03239e-39
0002d0 e9 6e 0c 80 3e b5 07 00 9e 91 08 80 da b3 01 00
       -1.141813e-39 7.07866e-40 -7.86922e-40 1.56354e-40
0002e0 62 4d 02 00 e9 38 0d 00 75 74 00 80 0e ed 05 80
       2.11431e-40 1.214277e-39 -4.1777e-41 -5.44217e-40
0002f0 84 20 01 00 a4 26 04 00 b7 aa 06 80 de 88 12 00
       1.035e-40 3.81204e-40 -6.12254e-40 1.702138e-39
000300 9b fa 0a 80 68 5e 00 80 8a 23 03 00 38 74 13 00
       -1.008255e-39 -3.3867e-41 2.88256e-40 1.786566e-39
000310 1b 96 10 80 91 35 0c 00 a2 72 0a 00 18 cd 12 00
       -1.523216e-39 1.121242e-39 9.59477e-40 1.726613e-39
000320 55 ba 0f 00 24 45 13 00 4c d7 08 80 df 4e 09 00
       1.444376e-39 1.769677e-39 -8.11918e-40 8.54813e-40
000330 ea 7b 10 00 af c5 01 80 92 e9 13 00 84 39 00 00
       1.51382e-39 -1.62751e-40 1.828664e-39 2.0633e-41
000340 d3 bb 0a 80 08 83 06 80 74 60 10 80 cd ee 06 80
       -9.85734e-40 -5.98018e-40 -1.503969e-39 -6.36679e-40
000350 e3 58 0d 00 a7 cd 0f 80 70 a9 05 80 4b e0 0c 80
       1.225748e-39 -1.451307e-39 -5.1996e-40 -1.182487e-39
000360 0f 50 05 00 d8 be 09 80 1d 52 07 80 8c fd 12 00
       4.87897e-40 -8.94981e-40 -6.72305e-40 1.743994e-39
000370 6a b3 13 00 e3 b9 13 80 f3 37 0e 00 d0 3d 06 80
       1.809236e-39 -1.811558e-39 1.305768e-39 -5.73187e-40
000380 ea 9b 10 80 fc b7 0b 00 a9 16 10 00 a7 88 01 00
       -1.5253e-39 1.076192e-39 1.477497e-39 1.40857e-40
000390 da 31 05 00 47 fb 0b 00 86 6f 02 00 d8 80 06 00
       4.77061e-40 1.100332e-39 2.23678e-40 5.97233e-40
0003a0 90 a1 03 00 3d 58 00 80 04 10 10 80 33 02 13 00
       3.33464e-40 -3.1654e-41 -1.475113e-39 1.745663e-39
0003b0 97 ef 0c 00 17 8e 09 80 e7 30 0c 00 9b 88 0f 80
       1.187975e-39 -8.77492e-40 1.119569e-39 -1.426537e-39
0003c0 93 e2 07 00 b8 8b 0d 80 3a c8 0e 00 3e 89 0f 00
       7.24128e-40 -1.243983e-39 1.357525e-39 1.426766e-39
0003d0 ef 8f 08 80 0a 72 13 00 42 b5 00 00 56 b1 0c 00
       -7.86318e-40 1.785784e-39 6.5023e-41 1.165642e-39
0003e0 41 e7 0f 80 c5 f9 0e 00 a7 cd 12 00 98 15 06 00
       -1.460491e-39 1.375297e-39 1.726813e-39 5.5876e-40
0003f0 25 01 05 80 50 aa 0e 00 e5 d7 05 00 6a f7 0b 00
       -4.59588e-40 1.346794e-39 5.36626e-40 1.098946e-39

fc3.bias f4 [64]
000000 99 77 d4 b2 f6 51 42 b3 1f bf d6 9f bf 40 f2 b4
       -2.4734435e-08 -4.5243688e-08 -9.094871e-20 -4.5123122e-07
000010 25 00 c9 3b 40 13 5f 9d 61 5f 9b ba cb 06 e2 ae
       0.0061340504 -2.9523756e-21 -0.0011853987 -1.0278497e-10
000020 78 23 f2 b9 bc d8 9d 8a 78 68 9e 3c c7 bb b7 bc
       -0.00046184263 -1.5200076e-32 0.019336924 -0.022428406
000030 df f7 9e 3c 71 16 35 bc 59 51 8f 3d 2e f5 b1 ad
       0.019405304 -0.011052714 0.06997938 -2.0231452e-11
000040 01 d1 2c b8 08 ce f2 b3 82 ce 64 b7 87 ed 50 ba
       -4.1202646e-05 -1.130648e-07 -1.363794e-05 -0.00079699646
000050 00 6f d5 b3 d5 b6 19 b0 a7 26 ef 9b 74 ff 8a 9c
       -9.938776e-08 -5.5920896e-10 -3.9564212e-22 -9.198107e-22
000060 88 07 d5 90 ee de 32 96 67 fc a7 aa 84 cc a5 81
       -8.402529e-29 -1.444907e-25 -2.9840299e-13 -6.0904893e-38
000070 15 b0 01 bb e1 41 6b 3c 64 a4 ae 95 46 e7 bf 94
       -0.001978879 0.0143589685 -7.05374e-26 -1.9377293e-26
000080 d5 0d 49 93 b1 07 d4 9b 50 aa 0b 3d ce 55 00 b9
       -2.5376586e-27 -3.5077428e-22 0.03409797 -0.00012238996
000090 71 d1 a3 b9 96 21 05 3b 2b 60 a7 3d 6b 7a a4 ac
       -0.0003124583 0.0020314208 0.081726395 -4.6747515e-12
0000a0 e6 74 1d bb 61 39 3c b5 99 a4 dd ba 01 7c 53 ad
       -0.0024025976 -7.0118955e-07 -0.0016910016 -1.2021496e-11
0000b0 29 ed a3 3a 0e 44 bf af e3 6d 81 b2 8b dd cc a9
       0.0012506592 -3.4791053e-10 -1.5067547e-08 -9.0978515e-14
0000c0 b2 95 52 b4 5b 85 83 b5 8b 6d 66 8d 10 fa 01 b8
       -1.9612233e-07 -9.799072e-07 -7.100608e-31 -3.0988886e-05
0000d0 af 75 dd b3 62 35 62 92 0a 4d 8f af 67 09 11 3e
       -1.0312521e-07 -7.1378825e-28 -2.6066288e-10 0.14163743
0000e0 a9 9c cd 9d 8a b3 2c aa ee da 16 aa ad d9 24 3c
       -5.442503e-21 -1.5338959e-13 -1.3398633e-13 0.010061664
0000f0 b2 c4 41 b9 66 29 2b 92 d4 ab 03 ab 19 f7 83 b1
       -0.00018479189 -5.4009113e-28 -4.677901e-13 -3.8406935e-09

fc4.weight f4 [1, 64]
000000 d2 94 96 37 5d 9a d8 36 42 a1 df a8 a4 c1 1a b7
       1.7950693e-05 6.455272e-06 -2.4827908e-14 -9.224201e-06
000010 0c 68 d3 3e d1 37 af 1c c9 01 83 3d cf eb 45 b3
       0.4129032 1.1594957e-21 0.06396825 -4.6082103e-08
000020 39 de bd 39 20 02 92 09 67 b6 ad 3e b0 2b 58 bb
       0.00036214458 3.515022e-33 0.33928224 -0.0032985024
000030 ed 32 0e 3f 26 34 06 bb 2b 3e 3e be 44 a6 8b 28
       0.55546457 -0.002047786 -0.18578403 1.5504206e-14
000040 3e 86 93 34 38 43 39 b7 2b c4 64 b4 25 86 93 35
       2.7478558e-07 -1.104251e-05 -2.130552e-07 1.0991395e-06
000050 0e 21 70 b1 cf c3 5a b4 63 9a 8d 1c 02 4f 04 1e
       -3.4943386e-09 -2.0374067e-07 9.370505e-22 7.00436e-21
000060 fc 78 52 0f d4 e3 14 9c ca e5 8e b1 dc 27 53 01
       1.03771e-29 -4.9263553e-22 -4.158868e-09 3.8783177e-38
000070 4e 51 aa 3a 77 88 0a 3f 68 16 44 15 e6 15 1c 94
       0.0012994201 0.5411448 3.959956e-26 -7.880306e-27
000080 d3 8a 53 15 d0 fa c9 9b a7 7f e0 3e 50 28 d6 38
       4.2720624e-26 -3.3414744e-22 0.4384739 0.00010211824
000090 5e 71 d1 ba 63 48 b8 bb ce 0f 68 be 33 94 63 ab
       -0.0015979221 -0.0056238635 -0.22662279 -8.085227e-13
0000a0 43 57 fd ba 7d 8e 51 34 9e 63 58 b5 e4 e8 4d 33
       -0.0019328374 1.9516479e-07 -8.061123e-07 4.7942095e-08
0000b0 0d cf 54 3e 52 03 3d 2e b5 03 94 b4 90 17 a1 a5
       0.20782109 4.2976574e-11 -2.7569845e-07 -2.7945015e-16
0000c0 84 a8 b0 33 f1 7f 60 b6 57 d0 00 00 1a 8b 05 b9
       8.2262915e-08 -3.3453073e-06 7.4738e-41 -0.00012735688
0000d0 3e 5e ad 33 bf 39 7e 1b 79 ff 0c 2c ec 0c 3e 3f
       8.073083e-08 2.1029046e-22 2.0037012e-12 0.7423847
0000e0 53 55 a0 20 94 9b ea a9 d3 46 ef 28 6a 8c d5 3e
       2.7161517e-19 -1.0418676e-13 2.6565045e-14 0.4170869
0000f0 c4 fb bc b9 3a 12 b3 a1 3e 9f e0 2a c8 e1 43 31
       -0.00036045734 -1.2134336e-18 3.990089e-13 2.8504576e-09
