DRL Nanodegree/Personal Exercises Solutios/4. Multi-Agent  Reinforcement Learning/p3_collab-compet/Critic2_solved.pth (torch_old, 68233 bytes, 11 tensors)

fcs1.weight f4 [42, 48]
-0.043875948 -0.02395169 -0.0066685122 0.056421295 -0.024727743 -0.064888686 -0.0066684936 0.056421295
-0.07323333 -0.014538984 -0.004464177 0.117397085 -0.014106713 -0.063130654 -0.0044644373 0.117397085
-0.060725063 -0.009392408 0.012523633 -0.21845548 0.067385145 -0.003601539 0.012523643 -0.21845548
-0.039513912 0.02001649 0.0026253108 0.0044975383 0.024727743 -0.064888686 0.0026243888 0.0044975383
0.050601292 0.024866264 -0.009854558 0.018113472 0.014106713 -0.063130654 -0.009879754 0.018113472
0.17562133 0.021155043 -0.003385781 -0.0015342305 -0.067385145 -0.003601539 -0.0033894286 -0.0015342305
-0.0118113365 -0.012834536 0.021653749 -0.011945911 -0.026944643 0.009097114 0.021654112 -0.011945911
-0.0082230205 -0.012487112 0.042468578 0.0016492064 -0.029689645 0.0125167435 0.042469814 0.0016492064
-0.015313915 -0.008234629 0.020051984 0.0623385 -0.044026494 0.012610041 0.020076202 0.0623385
0.034901008 -0.008164323 0.0068158847 0.0053072544 0.026944643 0.009097114 0.007128072 0.0053072544
0.030526143 -0.0076980935 -0.044815518 0.0023434046 0.029689645 0.0125167435 -0.044796765 0.0023434046
0.03163182 -0.0031035866 0.014856805 0.039752927 0.044026494 0.012610041 0.014888586 0.039752927
-0.039309103 0.032036692 0.015049659 0.0112463785 0.1297762 0.08603729 -0.0079855835 0.011442932
0.07272128 0.06820087 -0.03498811 0.016588645 0.042960893 0.04635564 0.033560127 0.016540945
0.026912544 0.06082394 0.027467906 0.015830537 0.39935988 0.18338133 -0.025520476 0.015853018
-0.017060585 -0.009195699 -0.038721126 -0.022800153 -0.12981744 0.08603734 0.029144987 -0.022854103
0.10458772 0.0305224 -0.025877079 -0.014775227 -0.042989433 0.046357002 0.025000876 -0.014844168
0.21769615 0.024147173 0.007469765 0.039928015 -0.3993677 0.18337405 -0.0007828804 0.03994961
0.007376328 -0.034218013 -0.01713394 -0.07943167 0.012947267 -0.02319596 -0.01713394 -0.07943167
-0.0090876985 -0.050886907 0.003437578 -0.12711202 -0.003850484 0.0033657716 0.003437578 -0.12711202
-0.012532283 -0.05911593 -0.047854356 -0.034178056 0.003896406 0.00026209845 -0.04785434 -0.034178056
0.090255305 0.006456365 -0.015107689 0.0017565627 -0.012947267 -0.02319596 -0.015107755 0.0017565627
0.04737986 4.1034757e-05 -0.011336614 0.019824373 0.003850484 0.0033657716 -0.0113366125 0.019824373
0.04732615 0.0021408035 -0.005732662 0.002579671 -0.003896406 0.00026209845 -0.005732736 0.002579671
-0.10753177 0.16984636 0.013616212 0.01863568 -0.03208789 0.033335906 -0.00262831 0.018635796
-0.17246997 0.1582269 0.0050807297 0.073987834 0.0016692973 -0.16108766 -0.005532151 0.07398796
-0.20725948 0.18416694 0.00301774 0.05645057 0.16795859 -0.3301622 0.0013200326 0.056450132
0.015401132 0.013912832 -0.0061338446 0.00076246384 0.03207214 0.033335906 0.0020777874 0.0007619762
-0.012468704 0.0013223459 -0.0018784296 0.016645478 -0.0016666265 -0.16108766 -0.00062893995 0.016645124
0.0027171439 -0.024874162 -0.014935565 -0.0038487813 -0.1679724 -0.3301622 0.013623723 -0.0038486249
0.031837396 -0.03857152 -0.011596648 0.030349042 -0.027414724 0.022357618 -0.011596664 0.030349042
0.03652607 -0.027291289 -0.04743736 0.055025555 -0.026723463 0.029573034 -0.04743736 0.055025555
00000000: 44b7 33bd 5636 c4bc 8983 dabb 041a 673d
00000010: d691 cabc 5ce4 84bd 6183 dabb 041a 673d
00000020: 5bfb 95bd eb34 6ebc 3b48 92bb e26d f03d
00000030: d81f 67bc a54a 81bd 6a4a 92bb e26d f03d
00000040: d8ba 78bd 9de2 19bc ed2f 4d3c cbb2 5fbe
00000050: 3901 8a3d cc07 6cbb f72f 4d3c cbb2 5fbe
00000060: 57d9 21bd 9ff9 a33c 680d 2c3b 1660 933b
00000070: d691 ca3c 5ce4 84bd f0fd 2b3b 1660 933b
00000080: 4d43 4f3d 56b4 cb3c 0375 21bc b462 943c
00000090: d81f 673c a54a 81bd b1de 21bc b462 943c
000000a0: 14d6 333e 574d ad3c fbe3 5dbb 3c18 c9ba
000000b0: 3901 8abd cc07 6cbb 2d21 5ebb 3c18 c9ba
000000c0: 5684 41bc f247 52bc 3463 b13c c8b8 43bc
000000d0: 03bb dcbc 100c 153c f763 b13c c8b8 43bc
000000e0: d9b9 06bc be96 4cbc 88f3 2d3d 2f2a d83a
000000f0: b337 f3bc 0713 4d3c d4f4 2d3d 2f2a d83a
00000100: 37e7 7abc 8aea 06bc 0f44 a43c a856 7f3d
00000110: 2055 34bd 589a 4e3c d976 a43c a856 7f3d
00000120: 5cf4 0e3d a7c3 05bc c957 df3b 7ae8 ad3b
00000130: 03bb dc3c 100c 153c 9a92 e93b 7ae8 ad3b
00000140: f611 fa3c 4a40 fcbb 7a90 37bd ce93 193b
00000150: b337 f33c 0713 4d3c d07c 37bd ce93 193b
00000160: 5e90 013d 8b65 4bbb f569 733c f7d3 223d
00000170: 2055 343d 589a 4e3c 41ef 733c f7d3 223d
00000180: 9502 21bd e838 033d d892 763c bb42 383c
00000190: 0de4 043e 5234 b03d f7d5 02bc 237b 3b3c
000001a0: e5ee 943d e6ac 8b3d b14f 0fbd e9e4 873c
000001b0: c3f7 2f3d 69df 3d3d 5876 093d e080 873c
000001c0: b277 dc3c 8622 793d 6004 e13c 0baf 813c
000001d0: e678 cc3e 51c8 3b3e 5110 d1bc 30de 813c
000001e0: a4c2 8bbc 8fa9 16bc 0b9a 1ebd 63c7 babc
000001f0: ddee 04be 5834 b03d 78c1 ee3c 8738 bbbc
00000200: 1632 d63d 1d0a fa3c 2bfc d3bc cb13 72bc
00000210: b015 30bd d7e0 3d3d a3ce cc3c f434 73bc
00000220: bdeb 5e3e 4bd0 c53c eec4 f43b 8f8b 233d
00000230: ec79 ccbe 68c6 3b3e 373a 4dba 34a2 233d
00000240: 20b5 f13b 3028 0cbd 7a5c 8cbc 12ad a2bd
00000250: c620 543c 7405 bebc 7a5c 8cbc 12ad a2bd
00000260: 92e4 14bc ca6e 50bd fd48 613b a729 02be
00000270: 6758 7cbb 4794 5c3b fd48 613b a729 02be
00000280: 3454 4dbc 8c23 72bd ee02 44bd 4afe 0bbd
00000290: d85a 7f3b 426a 8939 ea02 44bd 4afe 0bbd
000002a0: c6d7 b83d ea8f d33b 3e86 77bc 773c e63a
000002b0: c620 54bc 7405 bebc 8486 77bc 773c e63a
000002c0: 6211 423d bc1c 2c38 35bd 39bc b966 a23c
000002d0: 6758 7c3b 4794 5c3b 33bd 39bc b966 a23c
000002e0: 11d9 413d b94c 0c3b 0ed9 bbbb b30f 293b
000002f0: d85a 7fbb 426a 8939 add9 bbbb b30f 293b
00000300: 9e39 dcbd 34ec 2d3e 8816 5f3c dba9 983c
00000310: 976e 03bd 3b8b 083d b93f 2cbb 19aa 983c
00000320: f89b 30be 3c06 223e 407c a63b ef86 973d
00000330: 53cc da3a 2af4 24be 0c47 b5bb 0087 973d
00000340: d43b 54be 4296 3c3e 47c5 453b b638 673d
00000350: 56fd 2b3e 050b a9be f204 ad3a 4138 673d
00000360: 0855 7c3c a6f2 633c 6bfe c8bb 15e0 473a
00000370: 145e 033d 3b8b 083d 7d2b 083b 5bbf 473a
00000380: 8949 4cbc 9152 ad3a a335 f6ba 195c 883c
00000390: b572 daba 2af4 24be 72df 24ba 5b5b 883c
000003a0: 1c12 323b e6c4 cbbc 4db4 74bc d63b 7cbb
000003b0: f500 2cbe 050b a9be 0936 5f3c 3639 7cbb
000003c0: ee67 023d 2cfd 1dbd deff 3dbc 8e9e f83c
000003d0: d894 e0bc 5327 b73c efff 3dbc 8e9e f83c
000003e0: 5c9c 153d fb91 dfbc ad4d 42bd 7a62 613d
000003f0: 2aeb dabc 2643 f23c ad4d 42bd 7a62 613d

fcs1.bias f4 [42]
-2.679614e-07 -1.3410548e-08 -1.3077764e-09 3.965786e-08 -4.2426606e-07 -2.9775453e-08 -1.5729885e-08 2.6875742e-09
1.5200339e-08 -1.844616e-39 -1.8476784e-07 -1.280968e-39 1.1433654e-06 -5.495024e-07 -1.43813e-39 -3.127398e-20
-1.611591e-08 3.1805345e-09 -3.0923941e-09 2.60245e-06 -1.500826e-39 1.208205e-07 1.537765e-39 -4.5632436e-07
1.1870304e-07 -5.5455e-41 9.93271e-40 -6.445107e-07 1.6994957e-07 -3.6588474e-07 1.3918625e-08 4.137191e-08
-1.458148e-39 -1.710997e-39 5.0548387e-08 8.935261e-09 6.394094e-08 -5.3681916e-08 -1.2323169e-08 7.368328e-08
3.3029605e-38 -1.0422569e-08
00000000: 56dc 8fb4 3764 66b2 4bbd b3b0 4754 2a33
00000010: afc6 e3b4 eac4 ffb2 621e 87b2 4eb0 3831
00000020: e691 8232 0a16 1480 9964 46b4 d1f2 0d80
00000030: bc75 9935 8481 13b5 eca8 0f80 ecaf 139f
00000040: 436f 8ab2 8e90 5a31 f981 54b1 c0a5 2e36
00000050: b157 1080 e3ba 0134 aabe 1000 befc f4b4
00000060: b0e9 fe33 969a 0080 d6d0 0a00 7002 2db5
00000070: 627b 3634 d16e c4b4 c31e 6f32 e5b0 3133
00000080: b9e0 0f80 90a1 1280 8a1a 5933 b281 1932
00000090: e74f 8933 e48f 66b3 dfb5 53b2 d03b 9e33
000000a0: 8dd4 3301 f10e 33b2

bn1.weight f4 [42]
0.28113028 0.11378569 0.6188915 0.1939418 0.3875355 0.27282536 0.37448215 0.08253715
0.15659553 -5.0792426e-07 0.33026397 7.0546e-40 0.7806742 0.6106629 3.57157e-40 -1.0477879e-12
0.19522743 0.13506216 0.34696805 0.47776332 3.923015e-32 0.24118617 0.00016874842 0.21852764
0.3670753 -3.7310313e-27 1.86797e-40 0.37041587 0.32197705 0.7022069 0.12211927 0.4740125
-2.1530726e-15 5.1408344e-05 0.25200608 0.14262475 0.33747256 0.2553964 0.14883748 0.39508605
1.4966761e-07 0.21541148
00000000: 4ff0 8f3e 7908 e93d ac6f 1e3f ae98 463e
00000010: 0e6b c63e c4af 8b3e 20bc bf3e 3d09 a93d
00000020: 945a 203e 4a58 08b5 5c18 a93e 89ae 0700
00000030: 44da 473f 6754 1c3f 9ce3 0300 8a76 93ab
00000040: b3e9 473e bc4d 0a3e cca5 b13e 659d f43e
00000050: d0b1 4b0b 82f9 763e 0ff2 3039 b6c5 5f3e
00000060: 4bf1 bb3e 27cd 9393 b708 0200 26a7 bd3e
00000070: 2dda a43e d5c3 333f ab19 fa3d c4b1 f23e
00000080: 2e25 1ba7 4a9f 5738 f106 813e 390c 123e
00000090: 34c9 ac3e 51c3 823e da68 183e b848 ca3e
000000a0: 52b4 2034 d494 5c3e

bn1.bias f4 [42]
-0.20682913 -0.062916495 -0.1019207 -0.034192286 -0.028625304 -0.131825 -0.026274096 -0.04142761
-0.05067395 -8.882197e-05 -0.049045313 -2.536547e-28 0.15333325 0.013362729 -3.6040545e-18 -0.035175662
-0.081202246 0.0062904493 0.0338235 0.18700203 -2.3224192e-18 0.007838241 -0.00023090397 -0.0631771
0.08532595 -1.530838e-14 -1.404082e-37 -0.23276924 -0.07140076 0.32824156 -0.041816402 0.23773675
-4.4810287e-11 -0.0037091693 0.006139509 -0.05915502 0.05366175 -0.04621803 -0.100880295 0.19966614
-0.00014290816 0.10889682
00000000: 04cb 53be 5dda 80bd cdbb d0bd 360d 0cbd
00000010: 9d7f eabc 22fd 06be c63c d7bc ffaf 29bd
00000020: 7d8f 4fbd ef45 bab8 bde3 48bd d4c5 a091
00000030: 6403 1d3e 59ef 5a3c 55f7 84a2 5b14 10bd
00000040: 5d4d a6bd 1d20 ce3b 838a 0a3d 767d 3f3e
00000050: 425d 2ba2 f76b 003c d01e 72b9 ff62 81bd
00000060: 5fbf ae3d b9e2 89a8 1e1d 3f82 0f5b 6ebe
00000070: 903a 92bd 470f a83e ad47 2bbd 4371 733e
00000080: e613 45ae 8915 73bb ef2d c93b 894c 72bd
00000090: 6ccc 5b3d 1e4f 3dbd 549a cebd 4875 4c3e
000000a0: 9ed9 15b9 4c05 df3d

bn1.running_mean f4 [42]
-0.83947223 0.56495494 -0.79771936 -1.9031874 0.021299094 1.4623852 0.07885212 -0.0443427
0.7384152 2.1457096e-36 -4.211398 -8.966418e-39 1.8087401 -1.5550456 3.4338432e-38 1.5871392e-10
-1.6063364 0.31133962 0.41653225 -1.7165197 2.9705173e-38 -1.5604734 -1.6484115e-20 1.1027722
1.7184151 2.675405e-39 1.1694932e-38 -6.330482 -4.563981 0.3587978 0.8930708 -0.44941008
2.0960875e-38 1.3535111e-31 3.6195402 0.45737606 2.7074413 2.0538397 0.37861687 2.2392805
-1.1467547e-05 -0.27314118
00000000: a7e7 56bf e3a0 103f 5637 4cbf a59b f3bf
00000010: 707b ae3c 702f bb3f 387d a13d b1a0 35bd
00000020: c708 3d3f 6b89 3604 c6c3 86c0 baa2 6180
00000030: cc84 e73f bc0b c7bf caf4 3a01 ff81 2e2f
00000040: 6e9c cdbf e867 9f3e b743 d53e ebb6 dbbf
00000050: f8ba 2101 98bd c7bf 25b0 9b9e a427 8d3f
00000060: 07f5 db3f f121 1d00 b658 7f00 4f93 cac0
00000070: 220c 92c0 58b4 b73e 4aa0 643f 1419 e6be
00000080: 643e e400 1fb2 2f0c 8ca6 6740 322d ea3e
00000090: b846 2d40 1c72 0340 12da c13e 5f50 0f40
000000a0: bd64 40b7 29d9 8bbe

bn1.running_var f4 [42]
3.4707513 6.7013083 46.44824 5.8856053 4.4797053 12.907886 19.746687 6.924029
12.140461 6e-45 7.1617994 6e-45 64.12022 15.913902 6e-45 1.1830465e-18
14.562925 11.39745 4.062207 2.7419562 6e-45 3.7210507 2.417003e-39 1.901104
3.0271218 6e-45 6e-45 6.848427 9.222319 3.5632277 10.799431 1.5241435
6e-45 6e-45 5.527827 12.941115 4.1236153 12.695376 12.103879 2.4220278
1.30080675e-08 6.168796
00000000: ca20 5e40 1e71 d640 ffca 3942 e156 bc40
00000010: bf59 8f40 b386 4e41 37f9 9d41 a591 dd40
00000020: 543f 4241 0400 0000 762d e540 0400 0000
00000030: 8d3d 8042 589f 7e41 0400 0000 3c96 ae21
00000040: be01 6941 f55b 3641 9afd 8140 367c 2f40
00000050: 0400 0000 b225 6e40 9f51 1a00 6057 f33f
00000060: 5dbc 4140 0400 0000 0400 0000 5026 db40
00000070: 9e8e 1341 ec0b 6440 78ca 2c41 2217 c33f
00000080: 0400 0000 0400 0000 f5e3 b040 cf0e 4f41
00000090: a8f4 8340 4320 4b41 7da9 4141 8102 1b40
000000a0: 167a 5f32 c766 c540

fc2.weight f4 [128, 46]
-0.0049250606 0.004897883 -0.052325338 -0.012898076 -0.07747207 0.01430454 -0.030796457 -0.004473515
0.029308934 -3.1709e-41 -0.027338969 -1.8083761e-28 -0.04890123 0.011095087 -1.334014e-39 -0.004100521
-0.0009384953 -0.012144058 -0.012248253 0.026762819 -9.33167e-40 0.0033359132 2.9529e-40 0.0024071725
-0.029819228 9.1153e-41 -4.31397e-40 0.01590122 0.058373317 -0.07350402 -0.011134471 -0.07074731
5.89002e-40 9.9105e-41 0.012600808 0.010293399 -0.05182965 -0.04037385 -0.0063401978 -0.058952063
-9.401615e-24 -0.033134107 0.021142097 0.008834588 0.09038353 0.074397475 -0.010732265 -0.0031581915
0.14025438 0.026027746 -0.03162759 0.0036945655 -0.04271716 -0.014465847 0.034186542 3.04733e-40
0.089163005 -1.7453337e-28 -0.008778029 -0.02263103 1.036476e-39 0.00027878647 -0.006657922 -0.0181502
-0.027170347 -0.15657224 -8.76246e-40 -0.029972082 -5.21195e-40 0.070558555 -0.02434051 -8.20251e-40
1.1765e-39 -0.028144049 -0.02527901 0.12070918 0.010093678 0.0852049 -5.3792e-40 -3.81181e-40
-0.0049904706 -0.011959456 -0.08721049 0.05642441 -0.026660105 -0.06892788 1.0525853e-15 -0.024270456
0.017937742 -0.0020016998 -0.01875871 -0.0031185355 0.03573422 0.06020485 -0.142299 0.06154773
-0.105354615 -0.0061397315 -0.041844744 0.012996723 0.035514265 6.4468e-40 0.009774318 4.6739416e-28
0.14120944 -0.015317461 3.6707e-40 0.008271961 0.060134858 0.044615556 -0.22915936 -0.20807184
3.01844e-40 0.116062276 -9.9243805e-20 -0.028880944 -0.022489317 2.93274e-40 -1.352707e-39 -0.0926543
0.057198603 -0.2753632 -0.027519422 0.10638035 5.63444e-40 1.9911445e-38 0.049284056 0.036238633
-0.0105106495 0.027395153 0.002269073 0.053434465 -6.972164e-11 0.050815195 -0.014609464 -0.0033554425
-0.004673235 0.0005091953 -1.997866e-39 -4.114253e-29 -7.34429e-07 5.6238872e-24 -1.7752842e-07 -1.5056723e-32
8.741176e-13 4.768214e-33 4.86429e-39 -1.252832e-39 -4.7062793e-13 6.0925e-40 -3.9796596e-05 -1.5281037e-05
-1.252221e-39 -1.219354e-39 -3.5143493e-32 -4.757923e-39 -3.0307625e-16 -2.5450447e-06 1.307291e-39 -4.0633144e-12
1.967995e-39 -2.6531102e-26 1.00064707e-10 2.9565e-41 -1.127433e-39 5.8283815e-14 3.9360276e-10 -1.1461927e-06
4.410975e-29 -1.359213e-05 -1.525965e-39 -4.58928e-40 -7.9238704e-10 4.2971857e-27 -4.2677753e-10 6.2677794e-25
-3.320832e-39 -2.633881e-06 2.9179653e-35 -8.8253055e-21 -2.5956408e-05 -0.00024827666 -0.00010111319 -5.8280475e-06
1.2164783e-10 -4.4130516e-10 -5.2486246e-09 1.5129136e-09 -1.8059504e-10 -2.4233504e-10 6.7041084e-10 2.7445513e-10
-8.579302e-10 -1.200902e-39 -4.3168769e-10 1.107452e-39 -1.5369859e-09 1.3632794e-10 -3.9172e-41 2.823251e-11
1.04931466e-10 -2.4410485e-10 2.0985291e-09 -2.1618286e-10 1.560494e-39 9.294303e-10 -2.76277e-40 2.492114e-10
7.924318e-10 -4.6988e-40 -1.125676e-39 -1.23558e-10 5.2750946e-11 -1.558743e-09 1.9127915e-10 -2.4962854e-09
-3.50997e-40 9.50456e-40 2.264329e-09 5.540539e-10 -8.364239e-10 2.0932505e-09 -4.4481038e-10 1.491375e-09
-5.1293e-41 2.9618313e-10 5.716666e-09 -2.4841134e-09 1.643841e-09 -5.555214e-10 -4.17047e-07 -6.726817e-07
-0.00034697162 1.1831143e-06 -6.3028296e-05 -6.4618216e-06 -4.5071563e-05 -1.0703573e-06 -5.520347e-07 -1.317704e-39
-4.0131854e-05 3.2328032e-35 -0.0010501062 -0.0003847465 -1.430424e-39 -7.316062e-10 -1.9938293e-08 -1.5742249e-06
-5.68209e-05 -0.00065478636 1.750091e-39 -9.011231e-05 -5.81034e-40 2.4066903e-06 -0.0001626663 -8.2302e-40
00000000: 6762 a1bb 6c7e a03b 1853 56bd 7452 53bc
00000010: ada9 9ebd 975d 6a3c da48 fcbc 9096 92bb
00000020: 4a19 f03c 6458 0080 f9f5 dfbc 293d 6591
00000030: a84c 48bd 2bc8 353c b086 0e80 aa5d 86bb
00000040: 5a05 76ba dff7 46bc e6ac 48bc b33d db3c
00000050: 4a29 0a80 569f 5a3b 2637 0300 a7c1 1d3b
00000060: 7447 f4bc 19fe 0000 8fb2 0480 4643 823c
00000070: dc18 6f3d 4789 96bd 5b6d 36bc f7e3 90bd
00000080: e669 0600 4414 0100 9f73 4e3c a5a5 283c
00000090: 544b 54bd 0d5f 25bd 6fc1 cfbb b877 71bd
000000a0: 8bda 3599 a1b7 07bd 3132 ad3c f3be 103c
000000b0: 001b b93d b45d 983d 62d6 2fbc a9f9 4ebb
000000c0: d89e 0f3e 2438 d53c ef8b 01bd 8620 723b
000000d0: 30f8 2ebd 2902 6dbc 3007 0c3d 7951 0300
000000e0: 189b b63d 513f 5d91 b9d1 0fbc b664 b9bc
000000f0: 4649 0b00 162a 9239 b32a dabb baaf 94bc
00000100: 5994 debc 7954 20be 9e8a 0980 0388 f5bc
00000110: e1ac 0580 0181 903d c065 c7bc 87ee 0880
00000120: 9acf 0c00 598e e6bc ed15 cfbc 6036 f73d
00000130: f45f 253c e87f ae3d 81db 0580 9426 0480
00000140: 1a87 a3bb 98f1 43bc 6a9b b2bd 481d 673d
00000150: 4b66 dabc 0f2a 8dbd 8bb1 9726 d6d2 c6bc
00000160: 2cf2 923c f32e 03bb deab 99bc 5860 4cbb
00000170: 0c5e 123d 5c99 763d d4b6 11be 7919 7c3d
00000180: 29c4 d7bd cd2f c9bb 6565 2bbd 35f0 543c
00000190: 6877 113d 1b05 0700 7624 203c 851f 1412
000001a0: 3599 103e 17f6 7abc 3eff 0300 1e87 073c
000001b0: f84f 763d cdbe 363d c0a8 6abe c910 55be
000001c0: 6b49 0300 0fb2 ed3d 3355 ea9f bb97 ecbc
000001d0: 843b b8bc 8731 0300 ccba 0e80 8ac1 bdbd
000001e0: 1549 6a3d 68fc 8cbe 6970 e1bc f1dd d93d
000001f0: a722 0600 02d1 d800 14de 493d f66e 143d
00000200: dc34 2cbc cd6b e03c bab4 143b 19de 5a3d
00000210: cb51 99ae 9823 503d 895c 6fbc fce6 5bbb
00000220: f021 99bb 857b 053a 3dc1 1580 0f9e 5090
00000230: 9425 45b5 4890 d918 a49e 3eb4 a35b 9c8a
00000240: d00a 762b 5910 c609 a9f7 3400 63a4 0d80
00000250: 5178 04ab 57a2 0600 45eb 26b8 c72f 80b7
00000260: afa2 0d80 1047 0d80 b779 368b 27cf 3380
00000270: 29b6 aea5 89cb 2ab6 323c 0e00 15f7 8eac
00000280: f86d 1500 2b60 0395 6c0b dc2e 6a52 0000
00000290: d346 0c80 553e 8329 aa62 d82f e2d6 99b5
000002a0: bba9 5f10 c109 64b7 c59d 1080 4eff 0480
000002b0: 48cf 59b0 a43a aa13 999f eaaf 77fa 4117
000002c0: 2129 2480 bbc1 30b6 4925 1b06 8fb4 269e
000002d0: f6bc d9b7 212b 82b9 bb0c d4b8 8c8e c3b6
000002e0: d2c0 052f 2e9c f2af 6457 b4b1 eaee cf30
000002f0: fc90 46af a039 85af f847 3830 20e2 962f
00000300: 79d3 6bb0 a013 0d80 a452 edaf 200f 0c00
00000310: e23d d3b0 e7e4 152f 326d 0080 f655 f82d
00000320: 2abf e62e b432 86af b735 1031 11b2 6daf
00000330: 06fe 1000 d87a 7f30 2602 0380 6301 892f
00000340: 6ed2 5930 d61d 0580 ed41 0c80 7cda 07af
00000350: 4900 682e 653b d6b0 4b50 522f 1e8b 2bb1
00000360: 70d2 0380 7c59 0a00 7f9a 1b31 144c 1830
00000370: 19ea 65b0 dad8 0f31 7f89 f4af 18f9 cc30
00000380: fc8e 0080 12d4 a22f 536c c431 fcb4 2ab1
00000390: 83ed e130 58b3 18b0 81e6 dfb4 5692 34b5
000003a0: bee9 b5b9 7fcb 9e35 0f2e 84b8 a0d2 d8b6
000003b0: 390b 3db8 32a9 8fb5 892f 14b5 3959 0e80
000003c0: 4053 28b8 a3e2 2b06 b8a3 89ba cdb7 c9b9
000003d0: 7193 0f80 361a 49b0 c544 abb2 f549 d3b5
000003e0: fa52 6eb8 f8a5 2bba 8b0e 1300 aefa bcb8
000003f0: b053 0680 a082 2136 6791 2ab9 3ff6 0880

fc2.bias f4 [128]
-0.04708435 -0.10414887 -0.06722183 -0.0012451761 -1.1646309e-08 -0.004364844 -0.018283531 -8.648384e-08
-0.00079678657 0.04042603 -0.02260639 -0.21676108 -3.880949e-09 -0.051796187 -9.192454e-23 -0.009406541
-3.2438446e-24 0.009151123 -0.019705113 -0.019958915 -0.0024549724 -0.00052348163 -1.7808606e-28 -2.776037e-09
-0.048095576 -0.005560111 -0.2172293 -0.20857218 -5.5833398e-12 -0.004069873 -0.09102965 0.049632803
-0.01803022 -0.0012384778 -1.1417469e-25 0.074326776 -0.008390891 -0.03252632 -9.676038e-05 -5.290056e-13
-5.8503174e-31 -9.9439986e-21 -0.1136602 -0.0019061008 -4.7158853e-11 -0.04604911 -0.0060210987 -2.6902263e-24
-0.005011597 -0.021774441 -5.2718465e-11 -3.3395604e-09 -2.6834702e-12 -7.8359655e-23 -2.1408192e-15 -1.9478843e-08
-9.495548e-14 -0.0017139111 -9.867875e-19 -0.09501612 -1.7139388e-23 -0.071900405 -0.05769222 -0.0052627088
-0.00010956311 -0.029120386 -0.02269834 -0.0059161414 0.0575847 -8.417786e-05 -5.4416155e-06 -5.8056557e-06
-0.028963892 -1.14883576e-07 -5.9586998e-09 -1.1182425e-05 -1.4481425e-09 -0.07862994 -1.7142705e-10 -3.6873737e-11
-0.12591934 0.050591677 -3.362037e-16 -0.090134 -0.00094428496 -0.010262502 -2.2283873e-10 -0.022333648
-0.0026333805 -0.05220451 -3.0973414e-08 -0.0353999 -0.06035869 -0.07520094 -1.3264286e-12 -1.3492958e-06
-2.1930559e-33 -0.044497985 -1.3979106e-11 -1.3042958e-06 -9.8321186e-32 -0.13917631 -0.050334726 -5.883456e-17
-7.661079e-23 -0.00016784562 -0.00013978408 -0.12348338 -0.0054639974 -0.05805112 -2.2045452e-20 -0.008219636
-2.9420503e-22 -0.12555663 -1.0689165e-11 -0.00020136086 -3.8920573e-09 -0.025934698 -1.2585453e-22 -0.027612446
-7.2280245e-06 -6.5687364e-13 -0.12382958 -3.2275565e-35 -1.8261562e-28 -0.18370864 -4.4316077e-19 0.04155653
00000000: 85db 40bd 014c d5bd 99ab 89bd 2d35 a3ba
00000010: 0215 48b2 f706 8fbb 58c7 95bc feb8 b9b3
00000020: 71df 50ba c495 253d 0931 b9bc 9ef6 5dbe
00000030: 3059 85b1 3d28 54bd 8942 de9a e41d 1abc
00000040: f6fa 7a98 98ee 153c 9e6c a1bc e180 a3bc
00000050: 9ae3 20bb 423a 09ba 3bc0 6191 8fc4 3eb1
00000060: deff 44bd 9731 b6bb 5c71 5ebe f293 55be
00000070: 4172 c4ac 925c 85bb c16d babd c44b 4b3d
00000080: 1db4 93bc 6b54 a2ba 6757 0d96 a338 983d
00000090: f379 09bc 523a 05bd d5eb cab8 dfe6 14ab
000000a0: 89da 3d8d 3ad6 3b9e aec6 e8bd 21d6 f9ba
000000b0: 2668 4fae fe9d 3cbd a34c c5bb 6c25 5098
000000c0: 5338 a4bb 5060 b2bc b7db 67ae 2b7e 65b1
000000d0: 1ad5 3cac 4776 bd9a 2543 1aa7 6e52 a7b2
000000e0: 1cd2 d5a9 50a5 e0ba c79f 91a1 d097 c2bd
000000f0: 12c3 a599 8540 93bd ad4e 6cbd cd72 acbb
00000100: 3fc5 e5b8 e08d eebc def1 b9bc 31dc c1bb
00000110: efdd 6b3d a588 b0b8 1f97 b6b6 34ce c2b6
00000120: af45 edbc eab5 f6b3 47bd ccb1 269c 3bb7
00000130: fc07 c7b0 bc08 a1bd 6d7c 3caf 232c 22ae
00000140: 00f1 00be 3839 4f3d e9ce c1a5 2d98 b8bd
00000150: e489 77ba 0e24 28bc 8703 75af 0ef5 b6bc
00000160: cb94 2cbb 65d4 55bd a107 05b3 7cff 10bd
00000170: ac3a 77bd f302 9abd a0ad baab 7319 b5b5
00000180: 2431 3689 8543 36bd 4cec 75ad 430f afb5
00000190: a341 ff8b 3c84 0ebe c92b 4ebd cba9 87a4
000001a0: c83b b99a b7ff 2fb9 0193 12b9 dbe4 fcbd
000001b0: 550b b3bb 03c7 6dbd a236 d09e a7ab 06bc
000001c0: 06d6 b19b eb91 00be b80b 3cad 6524 53b9
000001d0: e6ba 85b1 0175 d4bc 1726 189b 7f33 e2bc
000001e0: 4288 f2b6 bce4 38ab 5d9a fdbd 399b 2b86
000001f0: 287e 6791 1e1e 3cbe 48cc 02a1 2e37 2a3d

fc3.weight f4 [64, 128]
4.490841e-13 1.1696693e-13 1.1925832e-13 -1.583329e-39 -1.9495789e-21 5.2677876e-17 2.5054149e-18 7.39678e-40
-1.321737e-39 8.2209765e-14 -8.491909e-13 -1.5060724e-13 1.536712e-39 -8.6735225e-14 1.44476e-39 4.774224e-38
-1.190228e-39 -2.439402e-13 -1.082373e-39 4.6799413e-19 2.023294e-39 -1.40547e-39 1.146737e-39 1.498714e-39
4.8524747e-15 6.51511e-40 6.4389927e-13 4.5923747e-13 9.27707e-40 -4.7708947e-20 -9.5956277e-14 -6.439183e-13
1.1259095e-18 3.06128e-40 2.8781e-40 5.7079845e-13 1.77668e-40 4.4755032e-14 1.9247189e-19 -1.164587e-39
6.52356e-40 -5.88671e-40 1.8315455e-12 -7.69021e-40 -5.765837e-26 1.3057699e-12 -1.984449e-39 -3.88418e-40
9.985258e-19 1.511843e-11 -1.202241e-39 4.8563e-41 -1.859649e-39 -7.19317e-40 -1.085343e-39 -8.84581e-40
4.18674e-40 1.856146e-39 1.110774e-39 3.3971795e-13 -2.015375e-39 -2.526475e-13 -6.224633e-13 -1.1149078e-13
-1.12901e-39 -1.2589889e-12 2.1043028e-24 1.145182e-39 5.769266e-13 -1.6762e-39 -4.92086e-40 -1.986137e-39
2.8597127e-14 -1.790876e-39 1.189805e-39 1.382859e-39 1.339392e-39 -6.2064706e-14 -1.792991e-39 1.697544e-39
-4.8026778e-14 -1.0906767e-12 -8.85294e-40 -6.144004e-14 2.310337e-21 1.2015467e-27 1.70386e-39 -1.275627e-39
-1.702026e-39 -3.9228782e-13 -1.0669e-39 6.656707e-30 -2.515492e-13 7.642669e-12 1.052358e-39 -1.549353e-39
1.077105e-39 -1.475716e-39 1.916525e-39 -1.181314e-39 1.6537e-39 2.7290117e-13 -2.2926713e-12 -1.654534e-30
-3.8490475e-35 1.1169491e-18 1.585146e-39 -4.8291995e-12 -1.6284222e-38 2.8494578e-14 1.46417e-39 3.472e-40
1.081748e-39 -3.3080464e-13 -1.7623e-39 4.0704507e-18 -1.185711e-39 -5.2283304e-21 -6.15275e-40 -7.7718105e-14
-4.8714524e-20 -1.506078e-39 4.422032e-13 1.784867e-39 -1.50218e-39 -1.1412743e-13 1.12398e-39 -1.1863698e-13
6.57573e-40 -1.44094e-40 4.92974e-40 5.19317e-40 -1.083977e-39 -5.30855e-40 1.148084e-39 1.329996e-39
-1.99365e-39 2.68576e-40 5.4958025e-09 -2.96408e-40 4.84107e-40 1.272801e-39 4.28384e-40 1.770461e-39
-1.697548e-39 -6.7643e-41 -4.30939e-40 -7.912e-42 4.65255e-40 -6.2417e-40 -1.169023e-39 1.404276e-39
-3.6982e-40 -1.47223e-39 7.53283e-40 2.72035e-40 1.472515e-39 -2.98907e-40 -7.87244e-40 -4.94916e-40
9.1408e-41 -6.86771e-40 2.00578e-39 -6.94e-43 1.190081e-39 -7.02858e-40 1.533239e-39 1.667617e-39
2.73458e-40 4.08273e-40 -3.261e-42 -8.48177e-40 3.59952e-40 7.1955e-41 -1.354599e-39 -1.884477e-39
7.05893e-40 3.80366e-40 5.7102e-40 -1.55517e-39 -1.739642e-39 4.0992e-40 -1.462789e-39 6.4192e-40
1.23472e-39 1.960068e-39 1.374176e-39 3.655e-40 -5.81753e-40 1.175053e-39 6.68524e-40 2.1963e-41
1.768558e-39 7.98318e-40 -7.8496e-40 -1.369284e-39 5.78665e-40 1.86085e-39 -1.553831e-39 -1.679399e-39
1.114006e-39 5.20318e-40 8.61614e-40 -1.37304e-39 -1.275445e-39 5.08978e-40 1.03084e-39 6.10844e-40
-4.22721e-40 4.7705606e-10 5.68199e-40 -9.4654e-41 1.421089e-39 3.9428e-41 -5.14983e-40 -9.55736e-40
-1.451745e-39 7.63196e-40 1.78979e-39 -1.46266e-39 5.0064e-41 3.2841e-41 -1.78025e-39 3.82454e-40
9.52215e-40 -8.13577e-40 1.341767e-39 -1.81019e-39 1.12593e-39 3.3165e-41 6.21458e-40 1.115857e-39
1.60388e-39 -1.655924e-39 1.391188e-39 -4.0573e-41 -6.8523e-41 -1.03912e-39 -1.125358e-39 -1.812666e-39
7.52373e-40 -6.91586e-40 -1.622216e-39 -7.13411e-40 1.861446e-39 -1.202516e-39 -4.08408e-40 2.59497e-40
1.158715e-39 1.808042e-39 2.22673e-40 -6.885e-41 1.496486e-39 4.74943e-40 -1.97627e-39 5.53705e-40
00000000: d7cf fc2a 6cb1 032a df45 062a ad3d 1180
00000010: 574e 139d 0fef 7224 f3dd 3822 ec0d 0800
00000020: 7764 0e80 b41e b929 a706 6fab 9591 29aa
00000030: babb 1000 744f c3a9 67bb 0f00 7cf7 8101
00000040: dff5 0c80 7d53 89aa 37c9 0b80 a320 0a21
00000050: 1f08 1600 e14d 0f80 a37c 0c00 ce51 1000
00000060: 2ed4 ae27 2618 0700 d53d 352b 8c43 012b
00000070: 121a 0a00 944c 619f 0713 d8a9 343f 35ab
00000080: a927 a621 5c55 0300 4c22 0300 5daa 202b
00000090: 44ef 0100 0a8f 4929 0f3b 6320 65ae 0c80
000000a0: 811a 0700 fa68 0680 31e2 002c b85f 0880
000000b0: 55c1 8e95 52c5 b72b d69b 1580 c03a 0480
000000c0: 3d5b 9321 aefb 842d 5c17 0d80 6087 0000
000000d0: f23f 1480 2ad5 0780 7fd1 0b80 daa1 0980
000000e0: 188f 0400 2e36 1400 6318 0c00 843e bf2a
000000f0: 0cf2 1580 583a 8eaa 3535 2fab 0f0e fba9
00000100: 384b 0c80 db2f b1ab 03d0 2218 4d78 0c00
00000110: f163 222b 9040 1280 bc5b 0580 8ba0 1580
00000120: 3eca 0029 3c80 1380 b1f4 0c00 d90e 0f00
00000130: ae95 0e00 dec1 8ba9 2186 1380 107c 1200
00000140: 1b4b 58a9 c57f 99ab d7a3 0980 c659 8aa9
00000150: 6b90 2e1d 8664 be12 ab8d 1200 eee3 0d80
00000160: 8e88 1280 a2d6 dcaa 159e 0b80 9903 070f
00000170: 0f9c 8daa 8573 062d 8c75 0b00 f7de 1080
00000180: 88ba 0b00 b211 1080 7ede 1400 06dd 0c80
00000190: d801 1200 34a1 992a 1855 21ac 543b 068e
000001a0: 85a6 4c86 25d5 a421 be42 1100 90e9 a9ac
000001b0: c951 b180 0354 0029 83f1 0f00 dac7 0300
000001c0: 79c7 0b00 f939 baaa 9330 1380 522c 9622
000001d0: 48e9 0c80 4f85 c59d 23b3 0680 7001 afa9
000001e0: 3f0c 669f 5566 1080 33f0 f82a 7c6f 1300
000001f0: 775b 1080 fe7e 00aa 333d 0c00 c892 05aa
00000200: 0c29 0700 ad91 0180 365e 0500 a5a7 0500
00000210: b0cd 0b80 cfc7 0580 6480 0c00 7d7b 0e00
00000220: 7cb5 1580 aeec 0200 97d5 bc31 443a 0380
00000230: 7e45 0500 0ddc 0d00 29aa 0400 5347 1300
00000240: 137c 1280 90bc 0080 48b1 0480 0e16 0080
00000250: f110 0500 efcb 0680 c3ba 0c80 8d4a 0f00
00000260: e806 0480 fa07 1080 d933 0800 53f6 0200
00000270: c608 1000 3b41 0380 8492 0880 a063 0580
00000280: cffe 0000 707a 0780 4cd7 1500 ef01 0080
00000290: 76f5 0c00 48a7 0780 0cb2 1000 a328 1200
000002a0: 4afa 0200 1972 0400 1709 0080 5f3c 0980
000002b0: 66eb 0300 95c8 0000 12c0 0e80 2885 1480
000002c0: beaf 0700 4e24 0400 c537 0600 2eef 1080
000002d0: 6af1 1280 b176 0400 a9ed 0f80 69fd 0600
000002e0: e671 0d00 df57 1500 a5f6 0e00 defa 0300
000002f0: b155 0680 92cb 0c00 9347 0700 393d 0000
00000300: 0542 1300 63b1 0800 268c 0880 02e9 0e80
00000310: 154d 0600 4b43 1400 73eb 1080 7b49 1280
00000320: 6521 0c00 6faa 0500 d461 0900 7af3 0e80
00000330: 6ce3 0d80 d38a 0500 9039 0b00 c9a6 0600
00000340: 609a 0480 d621 0330 e82f 0600 db07 0180
00000350: 6b79 0f00 e96d 0000 909b 0580 3468 0a80
00000360: e0ce 0f80 7b4f 0800 357d 1300 4ded 0f80
00000370: 8f8b 0000 8c5b 0000 9d62 1380 202a 0400
00000380: 635e 0a00 ecdb 0880 4d9c 0e00 13b6 1380
00000390: a242 0c00 735c 0000 5fc4 0600 8e26 0c00
000003a0: f776 1100 0b08 1280 1126 0f00 1a71 0080
000003b0: 04bf 0080 a550 0b80 0a41 0c80 fabc 1380
000003c0: 4f31 0800 dc87 0780 14aa 1180 b3c4 0780
000003d0: f444 1400 2018 0d80 7a72 0480 5fd3 0200
000003e0: 079e 0c00 16b0 1300 b96c 0200 edbf 0080
000003f0: 984b 1000 f32b 0500 0985 1580 8107 0600

fc3.bias f4 [64]
-4.376979e-12 -3.6620142e-05 -1.4878088e-05 -1.5451802e-27 0.05610323 -2.7700553e-06 -1.3034711e-22 -8.376654e-15
0.029378837 -0.009984331 -3.616019e-12 -0.0049467627 -9.316217e-18 -0.0060263113 -1.4262217e-34 -6.140064e-29
-0.0050081895 -5.6680936e-05 -2.2883774e-28 -5.407706e-12 0.07027544 -0.032803386 -7.053696e-08 0.029806552
-2.6412445e-07 -3.187376e-08 -1.4274917e-10 -3.5948932e-14 -4.9142736e-06 -0.11707266 -0.00191063 -1.2276812e-10
-0.0044746627 -1.8786031e-07 0.08087608 -0.012729405 -1.2302939e-09 -4.661249e-28 0.023831284 -2.1720385e-20
-1.5341683e-08 -0.08471484 -4.873397e-27 -6.98048e-10 -4.9379072e-05 -0.00025995413 -0.0005977555 -1.04013e-25
-2.7712138e-10 -3.9934317e-10 -2.1015923e-17 -2.0620876e-06 -1.1128581e-27 -7.2634827e-09 -0.010109147 0.04192239
-7.614632e-05 -0.0050082603 -0.027135149 0.080762476 -2.0081826e-07 0.042877328 -3.1167337e-12 -7.466703e-11
00000000: 5200 9aac 9498 19b8 e79c 79b7 f5d7 f492
00000010: 80cc 653d 30e5 39b6 7a94 1d9b 80e6 16a8
00000020: e3ab f03c 5295 23bc 6874 7eac 7418 a2bb
00000030: 97da 2ba3 5d78 c5bb cf93 3d87 4bab 9b90
00000040: bd1b a4bb b1bc 6db8 0c0b 9191 4944 beac
00000050: 92ec 8f3d d85c 06bd 1b7a 97b3 df2c f43c
00000060: fdcc 8db4 92e5 08b3 52f4 1caf 4ce6 21a9
00000070: 4ae5 a4b6 cac3 efbd 1b6e faba 27fc 06af
00000080: 31a0 92bb a6b6 49b4 5ca2 a53d ff8e 50bc
00000090: 1e17 a9b0 8bb8 1392 d339 c33c ab24 cd9e
000000a0: b8c8 83b2 f97e adbd 1e0e c193 c3e0 3fb0
000000b0: 601c 4fb8 744a 88b9 b1b2 1cba 09c3 0096
000000c0: 5e59 98af 8e8a dbaf 72d6 c1a3 6562 0ab6
000000d0: e356 b092 4592 f9b1 d6a0 25bc d0b6 2b3d
000000e0: bfb0 9fb8 551c a4bb 884a debc cc66 a53d
000000f0: 81a0 57b4 23a0 2f3d 1552 5bac cd31 a4ae

fc4.weight f4 [1, 64]
-1.7154335e-12 0.0004880713 -0.0012556905 8.616251e-28 0.36936876 -3.906796e-05 3.18169e-40 3.1193871e-12
0.44483447 -0.0175366 4.926681e-13 -0.01214198 -3.31537e-40 0.0054796957 -3.59146e-40 -6.8490726e-30
9.347227e-05 4.428963e-10 -2.0002626e-16 -5.227816e-12 -0.39736578 -0.016467871 -4.753441e-06 0.70544297
-0.000110331894 -3.2911402e-07 -1.13321375e-11 7.1533837e-14 -1.1947486e-06 0.4078335 1.7967177e-06 -3.7929728e-06
0.0008397269 3.12753e-05 0.47797865 -0.0060979878 2.7036222e-06 -5.7887734e-28 -0.09647602 -5.3804056e-21
-8.8495633e-10 -0.2792848 2.2781016e-26 1.3938252e-07 -0.00022084899 4.2651274e-05 -0.0022080922 -2.7350535e-16
1.8884541e-10 7.577474e-11 2.8036327e-13 2.416105e-05 -2.799925e-28 2.5013055e-06 -0.75266135 0.68744665
4.697363e-05 -0.0046411417 0.016754081 0.50239587 -3.338297e-10 0.5176558 -6.2945127e-10 8.368558e-07
00000000: 016d f1ab d2e3 ff39 fb95 a4ba ab87 8812
00000010: e71d bd3e e7dc 23b8 ed76 0300 e281 5b2c
00000020: 58c1 e33e eaa8 8fbc 7aac 0a2b 28ef 46bc
00000030: 319c 0380 058f b33b 27e9 0380 6bea 0a8f
00000040: 8b06 c438 1d7c f32f 559d 66a5 fbef b7ac
00000050: 8773 cbbe a1e7 86bc bf7f 9fb6 e997 343f
00000060: fc61 e7b8 16b1 b0b4 695b 47ad 7314 a129
00000070: 405b a0b5 8dcf d03e c026 f135 c78a 7eb6
00000080: 1e21 5c3a 992d 0338 9eb9 f43e a1d1 c7bb
00000090: e06f 3536 1c74 3792 3895 c5bd 1744 cb9d
000000a0: 4441 73b0 6bfe 8ebe bd9c e114 2da9 1534
000000b0: b393 67b9 75e4 3238 a4b5 10bb 44aa 9da5
000000c0: 42a3 4f2f 63a1 a62e 9bd4 9d2a 76ad ca37
000000d0: 6177 b191 1adc 2736 6aae 40bf 81fc 2f3f
000000e0: 8d05 4538 b814 98bb db3f 893c 049d 003f
000000f0: 5b86 b7af 1785 043f b205 2db0 4ba4 6035
